{"format": "graph-model", "generatedBy": "2.10.1", "convertedBy": "TensorFlow.js Converter v3.21.0", "signature": {"inputs": {"input_2": {"name": "input_2:0", "dtype": "DT_FLOAT", "tensorShape": {"dim": [{"size": "-1"}, {"size": "100"}]}}, "input_1": {"name": "input_1:0", "dtype": "DT_FLOAT", "tensorShape": {"dim": [{"size": "-1"}, {"size": "900"}, {"size": "144"}]}}}, "outputs": {"transformer": {"name": "Identity:0", "dtype": "DT_FLOAT", "tensorShape": {"dim": [{"size": "-1"}, {"size": "100"}, {"size": "60"}]}}}}, "modelTopology": {"node": [{"name": "StatefulPartitionedCall/model/transformer/dense_5/Tensordot/Const", "op": "Const", "attr": {"dtype": {"type": "DT_INT32"}, "value": {"tensor": {"dtype": "DT_INT32", "tensorShape": {"dim": [{"size": "1"}]}}}}}, {"name": "StatefulPartitionedCall/model/transformer/dense_5/Tensordot/axes", "op": "Const", "attr": {"value": {"tensor": {"dtype": "DT_INT32", "tensorShape": {"dim": [{"size": "1"}]}}}, "dtype": {"type": "DT_INT32"}}}, {"name": "StatefulPartitionedCall/model/transformer/dense_5/Tensordot/GatherV2_1/axis", "op": "Const", "attr": {"dtype": {"type": "DT_INT32"}, "value": {"tensor": {"dtype": "DT_INT32", "tensorShape": {}}}}}, {"name": "StatefulPartitionedCall/model/transformer/dense_5/Tensordot/Const_1", "op": "Const", "attr": {"value": {"tensor": {"dtype": "DT_INT32", "tensorShape": {"dim": [{"size": "1"}]}}}, "dtype": {"type": "DT_INT32"}}}, {"name": "StatefulPartitionedCall/model/transformer/dense_5/Tensordot/ReadVariableOp", "op": "Const", "attr": {"dtype": {"type": "DT_FLOAT"}, "value": {"tensor": {"dtype": "DT_FLOAT", "tensorShape": {"dim": [{"size": "141"}, {"size": "60"}]}}}}}, {"name": "StatefulPartitionedCall/model/transformer/decoder/decoder_layer/feed_forward_1/layer_normalization_4/Reshape/shape/0", "op": "Const", "attr": {"dtype": {"type": "DT_INT32"}, "value": {"tensor": {"dtype": "DT_INT32", "tensorShape": {}}}}}, {"name": "StatefulPartitionedCall/model/transformer/decoder/decoder_layer/feed_forward_1/layer_normalization_4/strided_slice_2/stack", "op": "Const", "attr": {"dtype": {"type": "DT_INT32"}, "value": {"tensor": {"dtype": "DT_INT32", "tensorShape": {"dim": [{"size": "1"}]}}}}}, {"name": "StatefulPartitionedCall/model/transformer/decoder/decoder_layer/feed_forward_1/layer_normalization_4/strided_slice_2/stack_1", "op": "Const", "attr": {"dtype": {"type": "DT_INT32"}, "value": {"tensor": {"dtype": "DT_INT32", "tensorShape": {"dim": [{"size": "1"}]}}}}}, {"name": "StatefulPartitionedCall/model/transformer/decoder/decoder_layer/feed_forward_1/layer_normalization_4/strided_slice_2/stack_2", "op": "Const", "attr": {"dtype": {"type": "DT_INT32"}, "value": {"tensor": {"dtype": "DT_INT32", "tensorShape": {"dim": [{"size": "1"}]}}}}}, {"name": "StatefulPartitionedCall/model/transformer/decoder/decoder_layer/feed_forward_1/layer_normalization_4/Reshape/shape/3", "op": "Const", "attr": {"value": {"tensor": {"dtype": "DT_INT32", "tensorShape": {}}}, "dtype": {"type": "DT_INT32"}}}, {"name": "StatefulPartitionedCall/model/transformer/decoder/decoder_layer/feed_forward_1/layer_normalization_4/ones/Const", "op": "Const", "attr": {"value": {"tensor": {"dtype": "DT_FLOAT", "tensorShape": {}}}, "dtype": {"type": "DT_FLOAT"}}}, {"name": "StatefulPartitionedCall/model/transformer/decoder/decoder_layer/feed_forward_1/layer_normalization_4/strided_slice/stack", "op": "Const", "attr": {"dtype": {"type": "DT_INT32"}, "value": {"tensor": {"dtype": "DT_INT32", "tensorShape": {"dim": [{"size": "1"}]}}}}}, {"name": "StatefulPartitionedCall/model/transformer/decoder/decoder_layer/feed_forward_1/layer_normalization_4/strided_slice/stack_1", "op": "Const", "attr": {"dtype": {"type": "DT_INT32"}, "value": {"tensor": {"dtype": "DT_INT32", "tensorShape": {"dim": [{"size": "1"}]}}}}}, {"name": "StatefulPartitionedCall/model/transformer/decoder/decoder_layer/feed_forward_1/layer_normalization_4/strided_slice/stack_2", "op": "Const", "attr": {"dtype": {"type": "DT_INT32"}, "value": {"tensor": {"dtype": "DT_INT32", "tensorShape": {"dim": [{"size": "1"}]}}}}}, {"name": "StatefulPartitionedCall/model/transformer/decoder/decoder_layer/feed_forward_1/layer_normalization_4/strided_slice_1/stack", "op": "Const", "attr": {"value": {"tensor": {"dtype": "DT_INT32", "tensorShape": {"dim": [{"size": "1"}]}}}, "dtype": {"type": "DT_INT32"}}}, {"name": "StatefulPartitionedCall/model/transformer/decoder/decoder_layer/feed_forward_1/layer_normalization_4/strided_slice_1/stack_1", "op": "Const", "attr": {"dtype": {"type": "DT_INT32"}, "value": {"tensor": {"dtype": "DT_INT32", "tensorShape": {"dim": [{"size": "1"}]}}}}}, {"name": "StatefulPartitionedCall/model/transformer/decoder/decoder_layer/feed_forward_1/layer_normalization_4/strided_slice_1/stack_2", "op": "Const", "attr": {"dtype": {"type": "DT_INT32"}, "value": {"tensor": {"dtype": "DT_INT32", "tensorShape": {"dim": [{"size": "1"}]}}}}}, {"name": "StatefulPartitionedCall/model/transformer/decoder/decoder_layer/feed_forward_1/layer_normalization_4/zeros/Const", "op": "Const", "attr": {"dtype": {"type": "DT_FLOAT"}, "value": {"tensor": {"dtype": "DT_FLOAT", "tensorShape": {}}}}}, {"name": "StatefulPartitionedCall/model/transformer/decoder/decoder_layer/feed_forward_1/layer_normalization_4/Const", "op": "Const", "attr": {"dtype": {"type": "DT_FLOAT"}, "value": {"tensor": {"dtype": "DT_FLOAT", "tensorShape": {"dim": [{}]}}}}}, {"name": "StatefulPartitionedCall/model/transformer/decoder/decoder_layer/feed_forward_1/layer_normalization_4/Const_1", "op": "Const", "attr": {"value": {"tensor": {"dtype": "DT_FLOAT", "tensorShape": {"dim": [{}]}}}, "dtype": {"type": "DT_FLOAT"}}}, {"name": "StatefulPartitionedCall/model/transformer/decoder/decoder_layer/feed_forward_1/sequential_1/dense_4/Tensordot/Const", "op": "Const", "attr": {"dtype": {"type": "DT_INT32"}, "value": {"tensor": {"dtype": "DT_INT32", "tensorShape": {"dim": [{"size": "1"}]}}}}}, {"name": "StatefulPartitionedCall/model/transformer/decoder/decoder_layer/feed_forward_1/sequential_1/dense_4/Tensordot/axes", "op": "Const", "attr": {"value": {"tensor": {"dtype": "DT_INT32", "tensorShape": {"dim": [{"size": "1"}]}}}, "dtype": {"type": "DT_INT32"}}}, {"name": "StatefulPartitionedCall/model/transformer/decoder/decoder_layer/feed_forward_1/sequential_1/dense_4/Tensordot/GatherV2_1/axis", "op": "Const", "attr": {"dtype": {"type": "DT_INT32"}, "value": {"tensor": {"dtype": "DT_INT32", "tensorShape": {}}}}}, {"name": "StatefulPartitionedCall/model/transformer/decoder/decoder_layer/feed_forward_1/sequential_1/dense_4/Tensordot/Const_1", "op": "Const", "attr": {"dtype": {"type": "DT_INT32"}, "value": {"tensor": {"dtype": "DT_INT32", "tensorShape": {"dim": [{"size": "1"}]}}}}}, {"name": "StatefulPartitionedCall/model/transformer/decoder/decoder_layer/feed_forward_1/sequential_1/dense_4/Tensordot/ReadVariableOp", "op": "Const", "attr": {"value": {"tensor": {"dtype": "DT_FLOAT", "tensorShape": {"dim": [{"size": "389"}, {"size": "141"}]}}}, "dtype": {"type": "DT_FLOAT"}}}, {"name": "StatefulPartitionedCall/model/transformer/decoder/decoder_layer/feed_forward_1/sequential_1/dense_3/Tensordot/Const", "op": "Const", "attr": {"dtype": {"type": "DT_INT32"}, "value": {"tensor": {"dtype": "DT_INT32", "tensorShape": {"dim": [{"size": "1"}]}}}}}, {"name": "StatefulPartitionedCall/model/transformer/decoder/decoder_layer/feed_forward_1/sequential_1/dense_3/Tensordot/axes", "op": "Const", "attr": {"dtype": {"type": "DT_INT32"}, "value": {"tensor": {"dtype": "DT_INT32", "tensorShape": {"dim": [{"size": "1"}]}}}}}, {"name": "StatefulPartitionedCall/model/transformer/decoder/decoder_layer/feed_forward_1/sequential_1/dense_3/Tensordot/GatherV2_1/axis", "op": "Const", "attr": {"dtype": {"type": "DT_INT32"}, "value": {"tensor": {"dtype": "DT_INT32", "tensorShape": {}}}}}, {"name": "StatefulPartitionedCall/model/transformer/decoder/decoder_layer/feed_forward_1/sequential_1/dense_3/Tensordot/Const_1", "op": "Const", "attr": {"dtype": {"type": "DT_INT32"}, "value": {"tensor": {"dtype": "DT_INT32", "tensorShape": {"dim": [{"size": "1"}]}}}}}, {"name": "StatefulPartitionedCall/model/transformer/decoder/decoder_layer/feed_forward_1/sequential_1/dense_3/Tensordot/ReadVariableOp", "op": "Const", "attr": {"dtype": {"type": "DT_FLOAT"}, "value": {"tensor": {"dtype": "DT_FLOAT", "tensorShape": {"dim": [{"size": "141"}, {"size": "389"}]}}}}}, {"name": "StatefulPartitionedCall/model/transformer/decoder/decoder_layer/cross_attention/layer_normalization_3/Reshape/shape/0", "op": "Const", "attr": {"value": {"tensor": {"dtype": "DT_INT32", "tensorShape": {}}}, "dtype": {"type": "DT_INT32"}}}, {"name": "StatefulPartitionedCall/model/transformer/decoder/decoder_layer/cross_attention/layer_normalization_3/strided_slice_2/stack", "op": "Const", "attr": {"dtype": {"type": "DT_INT32"}, "value": {"tensor": {"dtype": "DT_INT32", "tensorShape": {"dim": [{"size": "1"}]}}}}}, {"name": "StatefulPartitionedCall/model/transformer/decoder/decoder_layer/cross_attention/layer_normalization_3/strided_slice_2/stack_1", "op": "Const", "attr": {"value": {"tensor": {"dtype": "DT_INT32", "tensorShape": {"dim": [{"size": "1"}]}}}, "dtype": {"type": "DT_INT32"}}}, {"name": "StatefulPartitionedCall/model/transformer/decoder/decoder_layer/cross_attention/layer_normalization_3/strided_slice_2/stack_2", "op": "Const", "attr": {"value": {"tensor": {"dtype": "DT_INT32", "tensorShape": {"dim": [{"size": "1"}]}}}, "dtype": {"type": "DT_INT32"}}}, {"name": "StatefulPartitionedCall/model/transformer/decoder/decoder_layer/cross_attention/layer_normalization_3/Reshape/shape/3", "op": "Const", "attr": {"dtype": {"type": "DT_INT32"}, "value": {"tensor": {"dtype": "DT_INT32", "tensorShape": {}}}}}, {"name": "StatefulPartitionedCall/model/transformer/decoder/decoder_layer/cross_attention/layer_normalization_3/ones/Const", "op": "Const", "attr": {"value": {"tensor": {"dtype": "DT_FLOAT", "tensorShape": {}}}, "dtype": {"type": "DT_FLOAT"}}}, {"name": "StatefulPartitionedCall/model/transformer/decoder/decoder_layer/cross_attention/layer_normalization_3/strided_slice/stack", "op": "Const", "attr": {"dtype": {"type": "DT_INT32"}, "value": {"tensor": {"dtype": "DT_INT32", "tensorShape": {"dim": [{"size": "1"}]}}}}}, {"name": "StatefulPartitionedCall/model/transformer/decoder/decoder_layer/cross_attention/layer_normalization_3/strided_slice/stack_1", "op": "Const", "attr": {"dtype": {"type": "DT_INT32"}, "value": {"tensor": {"dtype": "DT_INT32", "tensorShape": {"dim": [{"size": "1"}]}}}}}, {"name": "StatefulPartitionedCall/model/transformer/decoder/decoder_layer/cross_attention/layer_normalization_3/strided_slice/stack_2", "op": "Const", "attr": {"dtype": {"type": "DT_INT32"}, "value": {"tensor": {"dtype": "DT_INT32", "tensorShape": {"dim": [{"size": "1"}]}}}}}, {"name": "StatefulPartitionedCall/model/transformer/decoder/decoder_layer/cross_attention/layer_normalization_3/strided_slice_1/stack", "op": "Const", "attr": {"dtype": {"type": "DT_INT32"}, "value": {"tensor": {"dtype": "DT_INT32", "tensorShape": {"dim": [{"size": "1"}]}}}}}, {"name": "StatefulPartitionedCall/model/transformer/decoder/decoder_layer/cross_attention/layer_normalization_3/strided_slice_1/stack_1", "op": "Const", "attr": {"dtype": {"type": "DT_INT32"}, "value": {"tensor": {"dtype": "DT_INT32", "tensorShape": {"dim": [{"size": "1"}]}}}}}, {"name": "StatefulPartitionedCall/model/transformer/decoder/decoder_layer/cross_attention/layer_normalization_3/strided_slice_1/stack_2", "op": "Const", "attr": {"value": {"tensor": {"dtype": "DT_INT32", "tensorShape": {"dim": [{"size": "1"}]}}}, "dtype": {"type": "DT_INT32"}}}, {"name": "StatefulPartitionedCall/model/transformer/decoder/decoder_layer/cross_attention/layer_normalization_3/zeros/Const", "op": "Const", "attr": {"dtype": {"type": "DT_FLOAT"}, "value": {"tensor": {"dtype": "DT_FLOAT", "tensorShape": {}}}}}, {"name": "StatefulPartitionedCall/model/transformer/decoder/decoder_layer/cross_attention/layer_normalization_3/Const", "op": "Const", "attr": {"dtype": {"type": "DT_FLOAT"}, "value": {"tensor": {"dtype": "DT_FLOAT", "tensorShape": {"dim": [{}]}}}}}, {"name": "StatefulPartitionedCall/model/transformer/decoder/decoder_layer/cross_attention/layer_normalization_3/Const_1", "op": "Const", "attr": {"dtype": {"type": "DT_FLOAT"}, "value": {"tensor": {"dtype": "DT_FLOAT", "tensorShape": {"dim": [{}]}}}}}, {"name": "StatefulPartitionedCall/model/transformer/decoder/decoder_layer/cross_attention/multi_head_attention_2/key/einsum/Einsum/ReadVariableOp", "op": "Const", "attr": {"dtype": {"type": "DT_FLOAT"}, "value": {"tensor": {"dtype": "DT_FLOAT", "tensorShape": {"dim": [{"size": "141"}, {"size": "3"}, {"size": "141"}]}}}}}, {"name": "StatefulPartitionedCall/model/transformer/decoder/decoder_layer/cross_attention/multi_head_attention_2/key/add/ReadVariableOp", "op": "Const", "attr": {"dtype": {"type": "DT_FLOAT"}, "value": {"tensor": {"dtype": "DT_FLOAT", "tensorShape": {"dim": [{"size": "3"}, {"size": "141"}]}}}}}, {"name": "StatefulPartitionedCall/model/transformer/decoder/decoder_layer/causal_self_attention/layer_normalization_2/Reshape/shape/0", "op": "Const", "attr": {"value": {"tensor": {"dtype": "DT_INT32", "tensorShape": {}}}, "dtype": {"type": "DT_INT32"}}}, {"name": "StatefulPartitionedCall/model/transformer/decoder/decoder_layer/causal_self_attention/layer_normalization_2/strided_slice_2/stack", "op": "Const", "attr": {"dtype": {"type": "DT_INT32"}, "value": {"tensor": {"dtype": "DT_INT32", "tensorShape": {"dim": [{"size": "1"}]}}}}}, {"name": "StatefulPartitionedCall/model/transformer/decoder/decoder_layer/causal_self_attention/layer_normalization_2/strided_slice_2/stack_1", "op": "Const", "attr": {"dtype": {"type": "DT_INT32"}, "value": {"tensor": {"dtype": "DT_INT32", "tensorShape": {"dim": [{"size": "1"}]}}}}}, {"name": "StatefulPartitionedCall/model/transformer/decoder/decoder_layer/causal_self_attention/layer_normalization_2/strided_slice_2/stack_2", "op": "Const", "attr": {"dtype": {"type": "DT_INT32"}, "value": {"tensor": {"dtype": "DT_INT32", "tensorShape": {"dim": [{"size": "1"}]}}}}}, {"name": "StatefulPartitionedCall/model/transformer/decoder/decoder_layer/causal_self_attention/layer_normalization_2/Reshape/shape/3", "op": "Const", "attr": {"value": {"tensor": {"dtype": "DT_INT32", "tensorShape": {}}}, "dtype": {"type": "DT_INT32"}}}, {"name": "StatefulPartitionedCall/model/transformer/decoder/decoder_layer/causal_self_attention/layer_normalization_2/ones/Const", "op": "Const", "attr": {"dtype": {"type": "DT_FLOAT"}, "value": {"tensor": {"dtype": "DT_FLOAT", "tensorShape": {}}}}}, {"name": "StatefulPartitionedCall/model/transformer/decoder/decoder_layer/causal_self_attention/layer_normalization_2/strided_slice/stack", "op": "Const", "attr": {"dtype": {"type": "DT_INT32"}, "value": {"tensor": {"dtype": "DT_INT32", "tensorShape": {"dim": [{"size": "1"}]}}}}}, {"name": "StatefulPartitionedCall/model/transformer/decoder/decoder_layer/causal_self_attention/layer_normalization_2/strided_slice/stack_1", "op": "Const", "attr": {"dtype": {"type": "DT_INT32"}, "value": {"tensor": {"dtype": "DT_INT32", "tensorShape": {"dim": [{"size": "1"}]}}}}}, {"name": "StatefulPartitionedCall/model/transformer/decoder/decoder_layer/causal_self_attention/layer_normalization_2/strided_slice/stack_2", "op": "Const", "attr": {"dtype": {"type": "DT_INT32"}, "value": {"tensor": {"dtype": "DT_INT32", "tensorShape": {"dim": [{"size": "1"}]}}}}}, {"name": "StatefulPartitionedCall/model/transformer/decoder/decoder_layer/causal_self_attention/layer_normalization_2/strided_slice_1/stack", "op": "Const", "attr": {"dtype": {"type": "DT_INT32"}, "value": {"tensor": {"dtype": "DT_INT32", "tensorShape": {"dim": [{"size": "1"}]}}}}}, {"name": "StatefulPartitionedCall/model/transformer/decoder/decoder_layer/causal_self_attention/layer_normalization_2/strided_slice_1/stack_1", "op": "Const", "attr": {"dtype": {"type": "DT_INT32"}, "value": {"tensor": {"dtype": "DT_INT32", "tensorShape": {"dim": [{"size": "1"}]}}}}}, {"name": "StatefulPartitionedCall/model/transformer/decoder/decoder_layer/causal_self_attention/layer_normalization_2/strided_slice_1/stack_2", "op": "Const", "attr": {"value": {"tensor": {"dtype": "DT_INT32", "tensorShape": {"dim": [{"size": "1"}]}}}, "dtype": {"type": "DT_INT32"}}}, {"name": "StatefulPartitionedCall/model/transformer/decoder/decoder_layer/causal_self_attention/layer_normalization_2/zeros/Const", "op": "Const", "attr": {"dtype": {"type": "DT_FLOAT"}, "value": {"tensor": {"dtype": "DT_FLOAT", "tensorShape": {}}}}}, {"name": "StatefulPartitionedCall/model/transformer/decoder/decoder_layer/causal_self_attention/layer_normalization_2/Const", "op": "Const", "attr": {"value": {"tensor": {"dtype": "DT_FLOAT", "tensorShape": {"dim": [{}]}}}, "dtype": {"type": "DT_FLOAT"}}}, {"name": "StatefulPartitionedCall/model/transformer/decoder/decoder_layer/causal_self_attention/layer_normalization_2/Const_1", "op": "Const", "attr": {"dtype": {"type": "DT_FLOAT"}, "value": {"tensor": {"dtype": "DT_FLOAT", "tensorShape": {"dim": [{}]}}}}}, {"name": "StatefulPartitionedCall/model/transformer/decoder/decoder_layer/causal_self_attention/multi_head_attention_1/key/einsum/Einsum/ReadVariableOp", "op": "Const", "attr": {"dtype": {"type": "DT_FLOAT"}, "value": {"tensor": {"dtype": "DT_FLOAT", "tensorShape": {"dim": [{"size": "141"}, {"size": "3"}, {"size": "141"}]}}}}}, {"name": "StatefulPartitionedCall/model/transformer/decoder/decoder_layer/causal_self_attention/multi_head_attention_1/key/add/ReadVariableOp", "op": "Const", "attr": {"dtype": {"type": "DT_FLOAT"}, "value": {"tensor": {"dtype": "DT_FLOAT", "tensorShape": {"dim": [{"size": "3"}, {"size": "141"}]}}}}}, {"name": "StatefulPartitionedCall/model/transformer/decoder/decoder_layer/causal_self_attention/multi_head_attention_1/query/einsum/Einsum/ReadVariableOp", "op": "Const", "attr": {"dtype": {"type": "DT_FLOAT"}, "value": {"tensor": {"dtype": "DT_FLOAT", "tensorShape": {"dim": [{"size": "141"}, {"size": "3"}, {"size": "141"}]}}}}}, {"name": "StatefulPartitionedCall/model/transformer/decoder/decoder_layer/causal_self_attention/multi_head_attention_1/query/add/ReadVariableOp", "op": "Const", "attr": {"dtype": {"type": "DT_FLOAT"}, "value": {"tensor": {"dtype": "DT_FLOAT", "tensorShape": {"dim": [{"size": "3"}, {"size": "141"}]}}}}}, {"name": "StatefulPartitionedCall/model/transformer/decoder/decoder_layer/causal_self_attention/multi_head_attention_1/Mul/y", "op": "Const", "attr": {"dtype": {"type": "DT_FLOAT"}, "value": {"tensor": {"dtype": "DT_FLOAT", "tensorShape": {}}}}}, {"name": "StatefulPartitionedCall/model/transformer/decoder/decoder_layer/causal_self_attention/multi_head_attention_1/softmax_1/sub/x", "op": "Const", "attr": {"value": {"tensor": {"dtype": "DT_FLOAT", "tensorShape": {}}}, "dtype": {"type": "DT_FLOAT"}}}, {"name": "StatefulPartitionedCall/model/transformer/decoder/decoder_layer/causal_self_attention/multi_head_attention_1/strided_slice/stack", "op": "Const", "attr": {"value": {"tensor": {"dtype": "DT_INT32", "tensorShape": {"dim": [{"size": "3"}]}}}, "dtype": {"type": "DT_INT32"}}}, {"name": "StatefulPartitionedCall/model/transformer/decoder/decoder_layer/causal_self_attention/multi_head_attention_1/strided_slice/stack_1", "op": "Const", "attr": {"dtype": {"type": "DT_INT32"}, "value": {"tensor": {"dtype": "DT_INT32", "tensorShape": {"dim": [{"size": "3"}]}}}}}, {"name": "StatefulPartitionedCall/model/transformer/decoder/decoder_layer/causal_self_attention/multi_head_attention_1/strided_slice/stack_2", "op": "Const", "attr": {"value": {"tensor": {"dtype": "DT_INT32", "tensorShape": {"dim": [{"size": "3"}]}}}, "dtype": {"type": "DT_INT32"}}}, {"name": "StatefulPartitionedCall/model/transformer/decoder/decoder_layer/causal_self_attention/multi_head_attention_1/strided_slice_1/stack", "op": "Const", "attr": {"value": {"tensor": {"dtype": "DT_INT32", "tensorShape": {"dim": [{"size": "3"}]}}}, "dtype": {"type": "DT_INT32"}}}, {"name": "StatefulPartitionedCall/model/transformer/decoder/decoder_layer/causal_self_attention/multi_head_attention_1/strided_slice_1/stack_1", "op": "Const", "attr": {"value": {"tensor": {"dtype": "DT_INT32", "tensorShape": {"dim": [{"size": "3"}]}}}, "dtype": {"type": "DT_INT32"}}}, {"name": "StatefulPartitionedCall/model/transformer/decoder/decoder_layer/causal_self_attention/multi_head_attention_1/strided_slice_1/stack_2", "op": "Const", "attr": {"value": {"tensor": {"dtype": "DT_INT32", "tensorShape": {"dim": [{"size": "3"}]}}}, "dtype": {"type": "DT_INT32"}}}, {"name": "StatefulPartitionedCall/model/transformer/decoder/decoder_layer/causal_self_attention/multi_head_attention_1/strided_slice_2/stack", "op": "Const", "attr": {"value": {"tensor": {"dtype": "DT_INT32", "tensorShape": {"dim": [{"size": "3"}]}}}, "dtype": {"type": "DT_INT32"}}}, {"name": "StatefulPartitionedCall/model/transformer/decoder/decoder_layer/causal_self_attention/multi_head_attention_1/strided_slice_2/stack_1", "op": "Const", "attr": {"value": {"tensor": {"dtype": "DT_INT32", "tensorShape": {"dim": [{"size": "3"}]}}}, "dtype": {"type": "DT_INT32"}}}, {"name": "StatefulPartitionedCall/model/transformer/decoder/decoder_layer/causal_self_attention/multi_head_attention_1/strided_slice_2/stack_2", "op": "Const", "attr": {"value": {"tensor": {"dtype": "DT_INT32", "tensorShape": {"dim": [{"size": "3"}]}}}, "dtype": {"type": "DT_INT32"}}}, {"name": "StatefulPartitionedCall/model/transformer/decoder/decoder_layer/causal_self_attention/multi_head_attention_1/ones/packed/0", "op": "Const", "attr": {"value": {"tensor": {"dtype": "DT_INT32", "tensorShape": {}}}, "dtype": {"type": "DT_INT32"}}}, {"name": "StatefulPartitionedCall/model/transformer/decoder/decoder_layer/causal_self_attention/multi_head_attention_1/strided_slice_3/stack", "op": "Const", "attr": {"dtype": {"type": "DT_INT32"}, "value": {"tensor": {"dtype": "DT_INT32", "tensorShape": {"dim": [{"size": "1"}]}}}}}, {"name": "StatefulPartitionedCall/model/transformer/decoder/decoder_layer/causal_self_attention/multi_head_attention_1/strided_slice_3/stack_1", "op": "Const", "attr": {"value": {"tensor": {"dtype": "DT_INT32", "tensorShape": {"dim": [{"size": "1"}]}}}, "dtype": {"type": "DT_INT32"}}}, {"name": "StatefulPartitionedCall/model/transformer/decoder/decoder_layer/causal_self_attention/multi_head_attention_1/strided_slice_3/stack_2", "op": "Const", "attr": {"value": {"tensor": {"dtype": "DT_INT32", "tensorShape": {"dim": [{"size": "1"}]}}}, "dtype": {"type": "DT_INT32"}}}, {"name": "StatefulPartitionedCall/model/transformer/decoder/decoder_layer/causal_self_attention/multi_head_attention_1/strided_slice_4/stack", "op": "Const", "attr": {"value": {"tensor": {"dtype": "DT_INT32", "tensorShape": {"dim": [{"size": "1"}]}}}, "dtype": {"type": "DT_INT32"}}}, {"name": "StatefulPartitionedCall/model/transformer/decoder/decoder_layer/causal_self_attention/multi_head_attention_1/strided_slice_4/stack_1", "op": "Const", "attr": {"dtype": {"type": "DT_INT32"}, "value": {"tensor": {"dtype": "DT_INT32", "tensorShape": {"dim": [{"size": "1"}]}}}}}, {"name": "StatefulPartitionedCall/model/transformer/decoder/decoder_layer/causal_self_attention/multi_head_attention_1/strided_slice_4/stack_2", "op": "Const", "attr": {"value": {"tensor": {"dtype": "DT_INT32", "tensorShape": {"dim": [{"size": "1"}]}}}, "dtype": {"type": "DT_INT32"}}}, {"name": "StatefulPartitionedCall/model/transformer/decoder/decoder_layer/causal_self_attention/multi_head_attention_1/ones/Const", "op": "Const", "attr": {"value": {"tensor": {"dtype": "DT_BOOL", "tensorShape": {}}}, "dtype": {"type": "DT_BOOL"}}}, {"name": "StatefulPartitionedCall/model/transformer/decoder/decoder_layer/causal_self_attention/multi_head_attention_1/MatrixBandPart/num_lower", "op": "Const", "attr": {"value": {"tensor": {"dtype": "DT_INT32", "tensorShape": {}}}, "dtype": {"type": "DT_INT32"}}}, {"name": "StatefulPartitionedCall/model/transformer/decoder/decoder_layer/causal_self_attention/multi_head_attention_1/MatrixBandPart/num_upper", "op": "Const", "attr": {"value": {"tensor": {"dtype": "DT_INT32", "tensorShape": {}}}, "dtype": {"type": "DT_INT32"}}}, {"name": "StatefulPartitionedCall/model/transformer/decoder/decoder_layer/causal_self_attention/multi_head_attention_1/ExpandDims/dim", "op": "Const", "attr": {"value": {"tensor": {"dtype": "DT_INT32", "tensorShape": {}}}, "dtype": {"type": "DT_INT32"}}}, {"name": "StatefulPartitionedCall/model/transformer/decoder/decoder_layer/causal_self_attention/multi_head_attention_1/softmax_1/mul/y", "op": "Const", "attr": {"dtype": {"type": "DT_FLOAT"}, "value": {"tensor": {"dtype": "DT_FLOAT", "tensorShape": {}}}}}, {"name": "unknown_18", "op": "Const", "attr": {"dtype": {"type": "DT_FLOAT"}, "value": {"tensor": {"dtype": "DT_FLOAT", "tensorShape": {"dim": [{"size": "60"}, {"size": "141"}]}}}}}, {"name": "StatefulPartitionedCall/model/transformer/decoder/positional_embedding_1/embedding/embedding_lookup/axis", "op": "Const", "attr": {"value": {"tensor": {"dtype": "DT_INT32", "tensorShape": {}}}, "dtype": {"type": "DT_INT32"}}}, {"name": "StatefulPartitionedCall/model/transformer/decoder/positional_embedding_1/Sqrt", "op": "Const", "attr": {"value": {"tensor": {"dtype": "DT_FLOAT", "tensorShape": {}}}, "dtype": {"type": "DT_FLOAT"}}}, {"name": "unknown_19", "op": "Const", "attr": {"value": {"tensor": {"dtype": "DT_FLOAT", "tensorShape": {"dim": [{"size": "2048"}, {"size": "142"}]}}}, "dtype": {"type": "DT_FLOAT"}}}, {"name": "StatefulPartitionedCall/model/transformer/decoder/positional_embedding_1/strided_slice_1/stack", "op": "Const", "attr": {"value": {"tensor": {"dtype": "DT_INT32", "tensorShape": {"dim": [{"size": "3"}]}}}, "dtype": {"type": "DT_INT32"}}}, {"name": "StatefulPartitionedCall/model/transformer/decoder/positional_embedding_1/strided_slice_1/stack_1/0", "op": "Const", "attr": {"value": {"tensor": {"dtype": "DT_INT32", "tensorShape": {}}}, "dtype": {"type": "DT_INT32"}}}, {"name": "StatefulPartitionedCall/model/transformer/decoder/positional_embedding_1/strided_slice/stack", "op": "Const", "attr": {"dtype": {"type": "DT_INT32"}, "value": {"tensor": {"dtype": "DT_INT32", "tensorShape": {"dim": [{"size": "1"}]}}}}}, {"name": "StatefulPartitionedCall/model/transformer/decoder/positional_embedding_1/strided_slice/stack_1", "op": "Const", "attr": {"value": {"tensor": {"dtype": "DT_INT32", "tensorShape": {"dim": [{"size": "1"}]}}}, "dtype": {"type": "DT_INT32"}}}, {"name": "StatefulPartitionedCall/model/transformer/decoder/positional_embedding_1/strided_slice/stack_2", "op": "Const", "attr": {"value": {"tensor": {"dtype": "DT_INT32", "tensorShape": {"dim": [{"size": "1"}]}}}, "dtype": {"type": "DT_INT32"}}}, {"name": "StatefulPartitionedCall/model/transformer/decoder/positional_embedding_1/strided_slice_1/stack_1/2", "op": "Const", "attr": {"value": {"tensor": {"dtype": "DT_INT32", "tensorShape": {}}}, "dtype": {"type": "DT_INT32"}}}, {"name": "StatefulPartitionedCall/model/transformer/decoder/positional_embedding_1/strided_slice_1/stack_2", "op": "Const", "attr": {"value": {"tensor": {"dtype": "DT_INT32", "tensorShape": {"dim": [{"size": "3"}]}}}, "dtype": {"type": "DT_INT32"}}}, {"name": "StatefulPartitionedCall/model/transformer/decoder/decoder_layer/causal_self_attention/multi_head_attention_1/value/einsum/Einsum/ReadVariableOp", "op": "Const", "attr": {"dtype": {"type": "DT_FLOAT"}, "value": {"tensor": {"dtype": "DT_FLOAT", "tensorShape": {"dim": [{"size": "141"}, {"size": "3"}, {"size": "141"}]}}}}}, {"name": "StatefulPartitionedCall/model/transformer/decoder/decoder_layer/causal_self_attention/multi_head_attention_1/value/add/ReadVariableOp", "op": "Const", "attr": {"value": {"tensor": {"dtype": "DT_FLOAT", "tensorShape": {"dim": [{"size": "3"}, {"size": "141"}]}}}, "dtype": {"type": "DT_FLOAT"}}}, {"name": "StatefulPartitionedCall/model/transformer/decoder/decoder_layer/causal_self_attention/multi_head_attention_1/attention_output/einsum/Einsum/ReadVariableOp", "op": "Const", "attr": {"value": {"tensor": {"dtype": "DT_FLOAT", "tensorShape": {"dim": [{"size": "3"}, {"size": "141"}, {"size": "141"}]}}}, "dtype": {"type": "DT_FLOAT"}}}, {"name": "StatefulPartitionedCall/model/transformer/decoder/decoder_layer/causal_self_attention/multi_head_attention_1/attention_output/add/ReadVariableOp", "op": "Const", "attr": {"value": {"tensor": {"dtype": "DT_FLOAT", "tensorShape": {"dim": [{"size": "141"}]}}}, "dtype": {"type": "DT_FLOAT"}}}, {"name": "StatefulPartitionedCall/model/transformer/decoder/decoder_layer/causal_self_attention/layer_normalization_2/mul_3/ReadVariableOp", "op": "Const", "attr": {"value": {"tensor": {"dtype": "DT_FLOAT", "tensorShape": {"dim": [{"size": "141"}]}}}, "dtype": {"type": "DT_FLOAT"}}}, {"name": "StatefulPartitionedCall/model/transformer/decoder/decoder_layer/causal_self_attention/layer_normalization_2/add/ReadVariableOp", "op": "Const", "attr": {"value": {"tensor": {"dtype": "DT_FLOAT", "tensorShape": {"dim": [{"size": "141"}]}}}, "dtype": {"type": "DT_FLOAT"}}}, {"name": "StatefulPartitionedCall/model/transformer/decoder/decoder_layer/cross_attention/multi_head_attention_2/query/einsum/Einsum/ReadVariableOp", "op": "Const", "attr": {"value": {"tensor": {"dtype": "DT_FLOAT", "tensorShape": {"dim": [{"size": "141"}, {"size": "3"}, {"size": "141"}]}}}, "dtype": {"type": "DT_FLOAT"}}}, {"name": "StatefulPartitionedCall/model/transformer/decoder/decoder_layer/cross_attention/multi_head_attention_2/query/add/ReadVariableOp", "op": "Const", "attr": {"value": {"tensor": {"dtype": "DT_FLOAT", "tensorShape": {"dim": [{"size": "3"}, {"size": "141"}]}}}, "dtype": {"type": "DT_FLOAT"}}}, {"name": "StatefulPartitionedCall/model/transformer/decoder/decoder_layer/cross_attention/multi_head_attention_2/Mul/y", "op": "Const", "attr": {"value": {"tensor": {"dtype": "DT_FLOAT", "tensorShape": {}}}, "dtype": {"type": "DT_FLOAT"}}}, {"name": "StatefulPartitionedCall/model/transformer/decoder/decoder_layer/cross_attention/multi_head_attention_2/softmax_2/sub/x", "op": "Const", "attr": {"value": {"tensor": {"dtype": "DT_FLOAT", "tensorShape": {}}}, "dtype": {"type": "DT_FLOAT"}}}, {"name": "StatefulPartitionedCall/model/transformer/decoder/decoder_layer/causal_self_attention/add_2/ExpandDims/dim", "op": "Const", "attr": {"dtype": {"type": "DT_INT32"}, "value": {"tensor": {"dtype": "DT_INT32", "tensorShape": {}}}}}, {"name": "StatefulPartitionedCall/model/transformer/decoder/positional_embedding_1/NotEqual/y", "op": "Const", "attr": {"value": {"tensor": {"dtype": "DT_FLOAT", "tensorShape": {}}}, "dtype": {"type": "DT_FLOAT"}}}, {"name": "StatefulPartitionedCall/model/transformer/decoder/decoder_layer/causal_self_attention/add_2/ExpandDims_1/dim", "op": "Const", "attr": {"value": {"tensor": {"dtype": "DT_INT32", "tensorShape": {}}}, "dtype": {"type": "DT_INT32"}}}, {"name": "StatefulPartitionedCall/model/transformer/decoder/decoder_layer/causal_self_attention/add_2/concat/axis", "op": "Const", "attr": {"dtype": {"type": "DT_INT32"}, "value": {"tensor": {"dtype": "DT_INT32", "tensorShape": {}}}}}, {"name": "StatefulPartitionedCall/model/transformer/decoder/decoder_layer/causal_self_attention/add_2/All/reduction_indices", "op": "Const", "attr": {"value": {"tensor": {"dtype": "DT_INT32", "tensorShape": {}}}, "dtype": {"type": "DT_INT32"}}}, {"name": "StatefulPartitionedCall/model/transformer/decoder/decoder_layer/cross_attention/multi_head_attention_2/strided_slice/stack", "op": "Const", "attr": {"value": {"tensor": {"dtype": "DT_INT32", "tensorShape": {"dim": [{"size": "3"}]}}}, "dtype": {"type": "DT_INT32"}}}, {"name": "StatefulPartitionedCall/model/transformer/decoder/decoder_layer/cross_attention/multi_head_attention_2/strided_slice/stack_1", "op": "Const", "attr": {"dtype": {"type": "DT_INT32"}, "value": {"tensor": {"dtype": "DT_INT32", "tensorShape": {"dim": [{"size": "3"}]}}}}}, {"name": "StatefulPartitionedCall/model/transformer/decoder/decoder_layer/cross_attention/multi_head_attention_2/strided_slice/stack_2", "op": "Const", "attr": {"dtype": {"type": "DT_INT32"}, "value": {"tensor": {"dtype": "DT_INT32", "tensorShape": {"dim": [{"size": "3"}]}}}}}, {"name": "StatefulPartitionedCall/model/transformer/decoder/decoder_layer/cross_attention/multi_head_attention_2/ExpandDims/dim", "op": "Const", "attr": {"value": {"tensor": {"dtype": "DT_INT32", "tensorShape": {}}}, "dtype": {"type": "DT_INT32"}}}, {"name": "StatefulPartitionedCall/model/transformer/decoder/decoder_layer/cross_attention/multi_head_attention_2/softmax_2/mul/y", "op": "Const", "attr": {"dtype": {"type": "DT_FLOAT"}, "value": {"tensor": {"dtype": "DT_FLOAT", "tensorShape": {}}}}}, {"name": "StatefulPartitionedCall/model/transformer/encoder/encoder_layer/feed_forward/layer_normalization_1/Reshape/shape/0", "op": "Const", "attr": {"dtype": {"type": "DT_INT32"}, "value": {"tensor": {"dtype": "DT_INT32", "tensorShape": {}}}}}, {"name": "StatefulPartitionedCall/model/transformer/encoder/encoder_layer/feed_forward/layer_normalization_1/strided_slice_2/stack", "op": "Const", "attr": {"value": {"tensor": {"dtype": "DT_INT32", "tensorShape": {"dim": [{"size": "1"}]}}}, "dtype": {"type": "DT_INT32"}}}, {"name": "StatefulPartitionedCall/model/transformer/encoder/encoder_layer/feed_forward/layer_normalization_1/strided_slice_2/stack_1", "op": "Const", "attr": {"value": {"tensor": {"dtype": "DT_INT32", "tensorShape": {"dim": [{"size": "1"}]}}}, "dtype": {"type": "DT_INT32"}}}, {"name": "StatefulPartitionedCall/model/transformer/encoder/encoder_layer/feed_forward/layer_normalization_1/strided_slice_2/stack_2", "op": "Const", "attr": {"dtype": {"type": "DT_INT32"}, "value": {"tensor": {"dtype": "DT_INT32", "tensorShape": {"dim": [{"size": "1"}]}}}}}, {"name": "StatefulPartitionedCall/model/transformer/encoder/encoder_layer/feed_forward/layer_normalization_1/Reshape/shape/3", "op": "Const", "attr": {"value": {"tensor": {"dtype": "DT_INT32", "tensorShape": {}}}, "dtype": {"type": "DT_INT32"}}}, {"name": "StatefulPartitionedCall/model/transformer/encoder/encoder_layer/feed_forward/layer_normalization_1/ones/Const", "op": "Const", "attr": {"dtype": {"type": "DT_FLOAT"}, "value": {"tensor": {"dtype": "DT_FLOAT", "tensorShape": {}}}}}, {"name": "StatefulPartitionedCall/model/transformer/encoder/encoder_layer/feed_forward/layer_normalization_1/strided_slice/stack", "op": "Const", "attr": {"value": {"tensor": {"dtype": "DT_INT32", "tensorShape": {"dim": [{"size": "1"}]}}}, "dtype": {"type": "DT_INT32"}}}, {"name": "StatefulPartitionedCall/model/transformer/encoder/encoder_layer/feed_forward/layer_normalization_1/strided_slice/stack_1", "op": "Const", "attr": {"dtype": {"type": "DT_INT32"}, "value": {"tensor": {"dtype": "DT_INT32", "tensorShape": {"dim": [{"size": "1"}]}}}}}, {"name": "StatefulPartitionedCall/model/transformer/encoder/encoder_layer/feed_forward/layer_normalization_1/strided_slice/stack_2", "op": "Const", "attr": {"value": {"tensor": {"dtype": "DT_INT32", "tensorShape": {"dim": [{"size": "1"}]}}}, "dtype": {"type": "DT_INT32"}}}, {"name": "StatefulPartitionedCall/model/transformer/encoder/encoder_layer/feed_forward/layer_normalization_1/strided_slice_1/stack", "op": "Const", "attr": {"value": {"tensor": {"dtype": "DT_INT32", "tensorShape": {"dim": [{"size": "1"}]}}}, "dtype": {"type": "DT_INT32"}}}, {"name": "StatefulPartitionedCall/model/transformer/encoder/encoder_layer/feed_forward/layer_normalization_1/strided_slice_1/stack_1", "op": "Const", "attr": {"dtype": {"type": "DT_INT32"}, "value": {"tensor": {"dtype": "DT_INT32", "tensorShape": {"dim": [{"size": "1"}]}}}}}, {"name": "StatefulPartitionedCall/model/transformer/encoder/encoder_layer/feed_forward/layer_normalization_1/strided_slice_1/stack_2", "op": "Const", "attr": {"dtype": {"type": "DT_INT32"}, "value": {"tensor": {"dtype": "DT_INT32", "tensorShape": {"dim": [{"size": "1"}]}}}}}, {"name": "StatefulPartitionedCall/model/transformer/encoder/encoder_layer/feed_forward/layer_normalization_1/zeros/Const", "op": "Const", "attr": {"value": {"tensor": {"dtype": "DT_FLOAT", "tensorShape": {}}}, "dtype": {"type": "DT_FLOAT"}}}, {"name": "StatefulPartitionedCall/model/transformer/encoder/encoder_layer/feed_forward/layer_normalization_1/Const", "op": "Const", "attr": {"dtype": {"type": "DT_FLOAT"}, "value": {"tensor": {"dtype": "DT_FLOAT", "tensorShape": {"dim": [{}]}}}}}, {"name": "StatefulPartitionedCall/model/transformer/encoder/encoder_layer/feed_forward/layer_normalization_1/Const_1", "op": "Const", "attr": {"value": {"tensor": {"dtype": "DT_FLOAT", "tensorShape": {"dim": [{}]}}}, "dtype": {"type": "DT_FLOAT"}}}, {"name": "StatefulPartitionedCall/model/transformer/encoder/encoder_layer/feed_forward/sequential/dense_2/Tensordot/Const", "op": "Const", "attr": {"value": {"tensor": {"dtype": "DT_INT32", "tensorShape": {"dim": [{"size": "1"}]}}}, "dtype": {"type": "DT_INT32"}}}, {"name": "StatefulPartitionedCall/model/transformer/encoder/encoder_layer/feed_forward/sequential/dense_2/Tensordot/axes", "op": "Const", "attr": {"dtype": {"type": "DT_INT32"}, "value": {"tensor": {"dtype": "DT_INT32", "tensorShape": {"dim": [{"size": "1"}]}}}}}, {"name": "StatefulPartitionedCall/model/transformer/encoder/encoder_layer/feed_forward/sequential/dense_2/Tensordot/GatherV2_1/axis", "op": "Const", "attr": {"value": {"tensor": {"dtype": "DT_INT32", "tensorShape": {}}}, "dtype": {"type": "DT_INT32"}}}, {"name": "StatefulPartitionedCall/model/transformer/encoder/encoder_layer/feed_forward/sequential/dense_2/Tensordot/Const_1", "op": "Const", "attr": {"value": {"tensor": {"dtype": "DT_INT32", "tensorShape": {"dim": [{"size": "1"}]}}}, "dtype": {"type": "DT_INT32"}}}, {"name": "StatefulPartitionedCall/model/transformer/encoder/encoder_layer/feed_forward/sequential/dense_2/Tensordot/ReadVariableOp", "op": "Const", "attr": {"dtype": {"type": "DT_FLOAT"}, "value": {"tensor": {"dtype": "DT_FLOAT", "tensorShape": {"dim": [{"size": "389"}, {"size": "141"}]}}}}}, {"name": "StatefulPartitionedCall/model/transformer/encoder/encoder_layer/feed_forward/sequential/dense_1/Tensordot/Const", "op": "Const", "attr": {"value": {"tensor": {"dtype": "DT_INT32", "tensorShape": {"dim": [{"size": "1"}]}}}, "dtype": {"type": "DT_INT32"}}}, {"name": "StatefulPartitionedCall/model/transformer/encoder/encoder_layer/feed_forward/sequential/dense_1/Tensordot/axes", "op": "Const", "attr": {"value": {"tensor": {"dtype": "DT_INT32", "tensorShape": {"dim": [{"size": "1"}]}}}, "dtype": {"type": "DT_INT32"}}}, {"name": "StatefulPartitionedCall/model/transformer/encoder/encoder_layer/feed_forward/sequential/dense_1/Tensordot/GatherV2_1/axis", "op": "Const", "attr": {"dtype": {"type": "DT_INT32"}, "value": {"tensor": {"dtype": "DT_INT32", "tensorShape": {}}}}}, {"name": "StatefulPartitionedCall/model/transformer/encoder/encoder_layer/feed_forward/sequential/dense_1/Tensordot/Const_1", "op": "Const", "attr": {"value": {"tensor": {"dtype": "DT_INT32", "tensorShape": {"dim": [{"size": "1"}]}}}, "dtype": {"type": "DT_INT32"}}}, {"name": "StatefulPartitionedCall/model/transformer/encoder/encoder_layer/feed_forward/sequential/dense_1/Tensordot/ReadVariableOp", "op": "Const", "attr": {"value": {"tensor": {"dtype": "DT_FLOAT", "tensorShape": {"dim": [{"size": "141"}, {"size": "389"}]}}}, "dtype": {"type": "DT_FLOAT"}}}, {"name": "StatefulPartitionedCall/model/transformer/encoder/encoder_layer/global_self_attention/layer_normalization/Reshape/shape/0", "op": "Const", "attr": {"dtype": {"type": "DT_INT32"}, "value": {"tensor": {"dtype": "DT_INT32", "tensorShape": {}}}}}, {"name": "StatefulPartitionedCall/model/transformer/encoder/encoder_layer/global_self_attention/layer_normalization/strided_slice_2/stack", "op": "Const", "attr": {"value": {"tensor": {"dtype": "DT_INT32", "tensorShape": {"dim": [{"size": "1"}]}}}, "dtype": {"type": "DT_INT32"}}}, {"name": "StatefulPartitionedCall/model/transformer/encoder/encoder_layer/global_self_attention/layer_normalization/strided_slice_2/stack_1", "op": "Const", "attr": {"value": {"tensor": {"dtype": "DT_INT32", "tensorShape": {"dim": [{"size": "1"}]}}}, "dtype": {"type": "DT_INT32"}}}, {"name": "StatefulPartitionedCall/model/transformer/encoder/encoder_layer/global_self_attention/layer_normalization/strided_slice_2/stack_2", "op": "Const", "attr": {"value": {"tensor": {"dtype": "DT_INT32", "tensorShape": {"dim": [{"size": "1"}]}}}, "dtype": {"type": "DT_INT32"}}}, {"name": "StatefulPartitionedCall/model/transformer/encoder/encoder_layer/global_self_attention/layer_normalization/Reshape/shape/3", "op": "Const", "attr": {"value": {"tensor": {"dtype": "DT_INT32", "tensorShape": {}}}, "dtype": {"type": "DT_INT32"}}}, {"name": "StatefulPartitionedCall/model/transformer/encoder/encoder_layer/global_self_attention/layer_normalization/ones/Const", "op": "Const", "attr": {"value": {"tensor": {"dtype": "DT_FLOAT", "tensorShape": {}}}, "dtype": {"type": "DT_FLOAT"}}}, {"name": "StatefulPartitionedCall/model/transformer/encoder/encoder_layer/global_self_attention/layer_normalization/strided_slice/stack", "op": "Const", "attr": {"value": {"tensor": {"dtype": "DT_INT32", "tensorShape": {"dim": [{"size": "1"}]}}}, "dtype": {"type": "DT_INT32"}}}, {"name": "StatefulPartitionedCall/model/transformer/encoder/encoder_layer/global_self_attention/layer_normalization/strided_slice/stack_1", "op": "Const", "attr": {"value": {"tensor": {"dtype": "DT_INT32", "tensorShape": {"dim": [{"size": "1"}]}}}, "dtype": {"type": "DT_INT32"}}}, {"name": "StatefulPartitionedCall/model/transformer/encoder/encoder_layer/global_self_attention/layer_normalization/strided_slice/stack_2", "op": "Const", "attr": {"value": {"tensor": {"dtype": "DT_INT32", "tensorShape": {"dim": [{"size": "1"}]}}}, "dtype": {"type": "DT_INT32"}}}, {"name": "StatefulPartitionedCall/model/transformer/encoder/encoder_layer/global_self_attention/layer_normalization/strided_slice_1/stack", "op": "Const", "attr": {"value": {"tensor": {"dtype": "DT_INT32", "tensorShape": {"dim": [{"size": "1"}]}}}, "dtype": {"type": "DT_INT32"}}}, {"name": "StatefulPartitionedCall/model/transformer/encoder/encoder_layer/global_self_attention/layer_normalization/strided_slice_1/stack_1", "op": "Const", "attr": {"value": {"tensor": {"dtype": "DT_INT32", "tensorShape": {"dim": [{"size": "1"}]}}}, "dtype": {"type": "DT_INT32"}}}, {"name": "StatefulPartitionedCall/model/transformer/encoder/encoder_layer/global_self_attention/layer_normalization/strided_slice_1/stack_2", "op": "Const", "attr": {"value": {"tensor": {"dtype": "DT_INT32", "tensorShape": {"dim": [{"size": "1"}]}}}, "dtype": {"type": "DT_INT32"}}}, {"name": "StatefulPartitionedCall/model/transformer/encoder/encoder_layer/global_self_attention/layer_normalization/zeros/Const", "op": "Const", "attr": {"value": {"tensor": {"dtype": "DT_FLOAT", "tensorShape": {}}}, "dtype": {"type": "DT_FLOAT"}}}, {"name": "StatefulPartitionedCall/model/transformer/encoder/encoder_layer/global_self_attention/layer_normalization/Const", "op": "Const", "attr": {"value": {"tensor": {"dtype": "DT_FLOAT", "tensorShape": {"dim": [{}]}}}, "dtype": {"type": "DT_FLOAT"}}}, {"name": "StatefulPartitionedCall/model/transformer/encoder/encoder_layer/global_self_attention/layer_normalization/Const_1", "op": "Const", "attr": {"value": {"tensor": {"dtype": "DT_FLOAT", "tensorShape": {"dim": [{}]}}}, "dtype": {"type": "DT_FLOAT"}}}, {"name": "StatefulPartitionedCall/model/transformer/encoder/encoder_layer/global_self_attention/multi_head_attention/attention_output/add/ReadVariableOp", "op": "Const", "attr": {"value": {"tensor": {"dtype": "DT_FLOAT", "tensorShape": {"dim": [{"size": "141"}]}}}, "dtype": {"type": "DT_FLOAT"}}}, {"name": "StatefulPartitionedCall/model/transformer/encoder/encoder_layer/global_self_attention/multi_head_attention/key/einsum/Einsum/ReadVariableOp", "op": "Const", "attr": {"value": {"tensor": {"dtype": "DT_FLOAT", "tensorShape": {"dim": [{"size": "141"}, {"size": "3"}, {"size": "141"}]}}}, "dtype": {"type": "DT_FLOAT"}}}, {"name": "StatefulPartitionedCall/model/transformer/encoder/encoder_layer/global_self_attention/multi_head_attention/key/add/ReadVariableOp", "op": "Const", "attr": {"value": {"tensor": {"dtype": "DT_FLOAT", "tensorShape": {"dim": [{"size": "3"}, {"size": "141"}]}}}, "dtype": {"type": "DT_FLOAT"}}}, {"name": "StatefulPartitionedCall/model/transformer/encoder/encoder_layer/global_self_attention/multi_head_attention/query/einsum/Einsum/ReadVariableOp", "op": "Const", "attr": {"value": {"tensor": {"dtype": "DT_FLOAT", "tensorShape": {"dim": [{"size": "141"}, {"size": "3"}, {"size": "141"}]}}}, "dtype": {"type": "DT_FLOAT"}}}, {"name": "StatefulPartitionedCall/model/transformer/encoder/encoder_layer/global_self_attention/multi_head_attention/query/add/ReadVariableOp", "op": "Const", "attr": {"value": {"tensor": {"dtype": "DT_FLOAT", "tensorShape": {"dim": [{"size": "3"}, {"size": "141"}]}}}, "dtype": {"type": "DT_FLOAT"}}}, {"name": "StatefulPartitionedCall/model/transformer/encoder/encoder_layer/global_self_attention/multi_head_attention/Mul/y", "op": "Const", "attr": {"value": {"tensor": {"dtype": "DT_FLOAT", "tensorShape": {}}}, "dtype": {"type": "DT_FLOAT"}}}, {"name": "StatefulPartitionedCall/model/transformer/encoder/positional_embedding/dense/Tensordot/Const", "op": "Const", "attr": {"value": {"tensor": {"dtype": "DT_INT32", "tensorShape": {"dim": [{"size": "1"}]}}}, "dtype": {"type": "DT_INT32"}}}, {"name": "StatefulPartitionedCall/model/transformer/encoder/positional_embedding/dense/Tensordot/axes", "op": "Const", "attr": {"value": {"tensor": {"dtype": "DT_INT32", "tensorShape": {"dim": [{"size": "1"}]}}}, "dtype": {"type": "DT_INT32"}}}, {"name": "StatefulPartitionedCall/model/transformer/encoder/positional_embedding/dense/Tensordot/GatherV2_1/axis", "op": "Const", "attr": {"dtype": {"type": "DT_INT32"}, "value": {"tensor": {"dtype": "DT_INT32", "tensorShape": {}}}}}, {"name": "StatefulPartitionedCall/model/transformer/encoder/positional_embedding/dense/Tensordot/Const_1", "op": "Const", "attr": {"value": {"tensor": {"dtype": "DT_INT32", "tensorShape": {"dim": [{"size": "1"}]}}}, "dtype": {"type": "DT_INT32"}}}, {"name": "StatefulPartitionedCall/model/transformer/encoder/positional_embedding/dense/Tensordot/ReadVariableOp", "op": "Const", "attr": {"value": {"tensor": {"dtype": "DT_FLOAT", "tensorShape": {"dim": [{"size": "144"}, {"size": "141"}]}}}, "dtype": {"type": "DT_FLOAT"}}}, {"name": "StatefulPartitionedCall/model/transformer/encoder/positional_embedding/dense/Tensordot/free", "op": "Const", "attr": {"value": {"tensor": {"dtype": "DT_INT32", "tensorShape": {"dim": [{"size": "2"}]}}}, "dtype": {"type": "DT_INT32"}}}, {"name": "StatefulPartitionedCall/model/transformer/encoder/positional_embedding/dense/Tensordot/GatherV2/axis", "op": "Const", "attr": {"value": {"tensor": {"dtype": "DT_INT32", "tensorShape": {}}}, "dtype": {"type": "DT_INT32"}}}, {"name": "StatefulPartitionedCall/model/transformer/encoder/positional_embedding/dense/Tensordot/Const_2", "op": "Const", "attr": {"dtype": {"type": "DT_INT32"}, "value": {"tensor": {"dtype": "DT_INT32", "tensorShape": {"dim": [{"size": "1"}]}}}}}, {"name": "StatefulPartitionedCall/model/transformer/encoder/positional_embedding/dense/Tensordot/concat_1/axis", "op": "Const", "attr": {"value": {"tensor": {"dtype": "DT_INT32", "tensorShape": {}}}, "dtype": {"type": "DT_INT32"}}}, {"name": "StatefulPartitionedCall/model/transformer/encoder/positional_embedding/dense/BiasAdd/ReadVariableOp", "op": "Const", "attr": {"value": {"tensor": {"dtype": "DT_FLOAT", "tensorShape": {"dim": [{"size": "141"}]}}}, "dtype": {"type": "DT_FLOAT"}}}, {"name": "unknown_1", "op": "Const", "attr": {"dtype": {"type": "DT_FLOAT"}, "value": {"tensor": {"dtype": "DT_FLOAT", "tensorShape": {"dim": [{"size": "2048"}, {"size": "142"}]}}}}}, {"name": "StatefulPartitionedCall/model/transformer/encoder/positional_embedding/strided_slice_1/stack", "op": "Const", "attr": {"dtype": {"type": "DT_INT32"}, "value": {"tensor": {"dtype": "DT_INT32", "tensorShape": {"dim": [{"size": "3"}]}}}}}, {"name": "StatefulPartitionedCall/model/transformer/encoder/positional_embedding/strided_slice_1/stack_1/0", "op": "Const", "attr": {"value": {"tensor": {"dtype": "DT_INT32", "tensorShape": {}}}, "dtype": {"type": "DT_INT32"}}}, {"name": "StatefulPartitionedCall/model/transformer/encoder/positional_embedding/strided_slice/stack", "op": "Const", "attr": {"value": {"tensor": {"dtype": "DT_INT32", "tensorShape": {"dim": [{"size": "1"}]}}}, "dtype": {"type": "DT_INT32"}}}, {"name": "StatefulPartitionedCall/model/transformer/encoder/positional_embedding/strided_slice/stack_1", "op": "Const", "attr": {"value": {"tensor": {"dtype": "DT_INT32", "tensorShape": {"dim": [{"size": "1"}]}}}, "dtype": {"type": "DT_INT32"}}}, {"name": "StatefulPartitionedCall/model/transformer/encoder/positional_embedding/strided_slice/stack_2", "op": "Const", "attr": {"dtype": {"type": "DT_INT32"}, "value": {"tensor": {"dtype": "DT_INT32", "tensorShape": {"dim": [{"size": "1"}]}}}}}, {"name": "StatefulPartitionedCall/model/transformer/encoder/positional_embedding/strided_slice_1/stack_1/2", "op": "Const", "attr": {"value": {"tensor": {"dtype": "DT_INT32", "tensorShape": {}}}, "dtype": {"type": "DT_INT32"}}}, {"name": "StatefulPartitionedCall/model/transformer/encoder/positional_embedding/strided_slice_1/stack_2", "op": "Const", "attr": {"value": {"tensor": {"dtype": "DT_INT32", "tensorShape": {"dim": [{"size": "3"}]}}}, "dtype": {"type": "DT_INT32"}}}, {"name": "StatefulPartitionedCall/model/transformer/encoder/encoder_layer/global_self_attention/multi_head_attention/value/einsum/Einsum/ReadVariableOp", "op": "Const", "attr": {"value": {"tensor": {"dtype": "DT_FLOAT", "tensorShape": {"dim": [{"size": "141"}, {"size": "3"}, {"size": "141"}]}}}, "dtype": {"type": "DT_FLOAT"}}}, {"name": "StatefulPartitionedCall/model/transformer/encoder/encoder_layer/global_self_attention/multi_head_attention/value/add/ReadVariableOp", "op": "Const", "attr": {"value": {"tensor": {"dtype": "DT_FLOAT", "tensorShape": {"dim": [{"size": "3"}, {"size": "141"}]}}}, "dtype": {"type": "DT_FLOAT"}}}, {"name": "StatefulPartitionedCall/model/transformer/encoder/encoder_layer/global_self_attention/multi_head_attention/attention_output/einsum/Einsum/ReadVariableOp", "op": "Const", "attr": {"value": {"tensor": {"dtype": "DT_FLOAT", "tensorShape": {"dim": [{"size": "3"}, {"size": "141"}, {"size": "141"}]}}}, "dtype": {"type": "DT_FLOAT"}}}, {"name": "StatefulPartitionedCall/model/transformer/encoder/encoder_layer/global_self_attention/layer_normalization/mul_3/ReadVariableOp", "op": "Const", "attr": {"value": {"tensor": {"dtype": "DT_FLOAT", "tensorShape": {"dim": [{"size": "141"}]}}}, "dtype": {"type": "DT_FLOAT"}}}, {"name": "StatefulPartitionedCall/model/transformer/encoder/encoder_layer/global_self_attention/layer_normalization/add/ReadVariableOp", "op": "Const", "attr": {"dtype": {"type": "DT_FLOAT"}, "value": {"tensor": {"dtype": "DT_FLOAT", "tensorShape": {"dim": [{"size": "141"}]}}}}}, {"name": "StatefulPartitionedCall/model/transformer/encoder/encoder_layer/feed_forward/sequential/dense_1/Tensordot/free", "op": "Const", "attr": {"dtype": {"type": "DT_INT32"}, "value": {"tensor": {"dtype": "DT_INT32", "tensorShape": {"dim": [{"size": "2"}]}}}}}, {"name": "StatefulPartitionedCall/model/transformer/encoder/encoder_layer/feed_forward/sequential/dense_1/Tensordot/GatherV2/axis", "op": "Const", "attr": {"value": {"tensor": {"dtype": "DT_INT32", "tensorShape": {}}}, "dtype": {"type": "DT_INT32"}}}, {"name": "StatefulPartitionedCall/model/transformer/encoder/encoder_layer/feed_forward/sequential/dense_1/Tensordot/Const_2", "op": "Const", "attr": {"value": {"tensor": {"dtype": "DT_INT32", "tensorShape": {"dim": [{"size": "1"}]}}}, "dtype": {"type": "DT_INT32"}}}, {"name": "StatefulPartitionedCall/model/transformer/encoder/encoder_layer/feed_forward/sequential/dense_1/Tensordot/concat_1/axis", "op": "Const", "attr": {"value": {"tensor": {"dtype": "DT_INT32", "tensorShape": {}}}, "dtype": {"type": "DT_INT32"}}}, {"name": "StatefulPartitionedCall/model/transformer/encoder/encoder_layer/feed_forward/sequential/dense_1/BiasAdd/ReadVariableOp", "op": "Const", "attr": {"value": {"tensor": {"dtype": "DT_FLOAT", "tensorShape": {"dim": [{"size": "389"}]}}}, "dtype": {"type": "DT_FLOAT"}}}, {"name": "StatefulPartitionedCall/model/transformer/encoder/encoder_layer/feed_forward/sequential/dense_2/Tensordot/free", "op": "Const", "attr": {"value": {"tensor": {"dtype": "DT_INT32", "tensorShape": {"dim": [{"size": "2"}]}}}, "dtype": {"type": "DT_INT32"}}}, {"name": "StatefulPartitionedCall/model/transformer/encoder/encoder_layer/feed_forward/sequential/dense_2/Tensordot/GatherV2/axis", "op": "Const", "attr": {"value": {"tensor": {"dtype": "DT_INT32", "tensorShape": {}}}, "dtype": {"type": "DT_INT32"}}}, {"name": "StatefulPartitionedCall/model/transformer/encoder/encoder_layer/feed_forward/sequential/dense_2/Tensordot/Const_2", "op": "Const", "attr": {"value": {"tensor": {"dtype": "DT_INT32", "tensorShape": {"dim": [{"size": "1"}]}}}, "dtype": {"type": "DT_INT32"}}}, {"name": "StatefulPartitionedCall/model/transformer/encoder/encoder_layer/feed_forward/sequential/dense_2/Tensordot/concat_1/axis", "op": "Const", "attr": {"value": {"tensor": {"dtype": "DT_INT32", "tensorShape": {}}}, "dtype": {"type": "DT_INT32"}}}, {"name": "StatefulPartitionedCall/model/transformer/encoder/encoder_layer/feed_forward/sequential/dense_2/BiasAdd/ReadVariableOp", "op": "Const", "attr": {"value": {"tensor": {"dtype": "DT_FLOAT", "tensorShape": {"dim": [{"size": "141"}]}}}, "dtype": {"type": "DT_FLOAT"}}}, {"name": "StatefulPartitionedCall/model/transformer/encoder/encoder_layer/feed_forward/layer_normalization_1/mul_3/ReadVariableOp", "op": "Const", "attr": {"value": {"tensor": {"dtype": "DT_FLOAT", "tensorShape": {"dim": [{"size": "141"}]}}}, "dtype": {"type": "DT_FLOAT"}}}, {"name": "StatefulPartitionedCall/model/transformer/encoder/encoder_layer/feed_forward/layer_normalization_1/add/ReadVariableOp", "op": "Const", "attr": {"value": {"tensor": {"dtype": "DT_FLOAT", "tensorShape": {"dim": [{"size": "141"}]}}}, "dtype": {"type": "DT_FLOAT"}}}, {"name": "StatefulPartitionedCall/model/transformer/decoder/decoder_layer/cross_attention/multi_head_attention_2/value/einsum/Einsum/ReadVariableOp", "op": "Const", "attr": {"value": {"tensor": {"dtype": "DT_FLOAT", "tensorShape": {"dim": [{"size": "141"}, {"size": "3"}, {"size": "141"}]}}}, "dtype": {"type": "DT_FLOAT"}}}, {"name": "StatefulPartitionedCall/model/transformer/decoder/decoder_layer/cross_attention/multi_head_attention_2/value/add/ReadVariableOp", "op": "Const", "attr": {"dtype": {"type": "DT_FLOAT"}, "value": {"tensor": {"dtype": "DT_FLOAT", "tensorShape": {"dim": [{"size": "3"}, {"size": "141"}]}}}}}, {"name": "StatefulPartitionedCall/model/transformer/decoder/decoder_layer/cross_attention/multi_head_attention_2/attention_output/einsum/Einsum/ReadVariableOp", "op": "Const", "attr": {"dtype": {"type": "DT_FLOAT"}, "value": {"tensor": {"dtype": "DT_FLOAT", "tensorShape": {"dim": [{"size": "3"}, {"size": "141"}, {"size": "141"}]}}}}}, {"name": "StatefulPartitionedCall/model/transformer/decoder/decoder_layer/cross_attention/multi_head_attention_2/attention_output/add/ReadVariableOp", "op": "Const", "attr": {"value": {"tensor": {"dtype": "DT_FLOAT", "tensorShape": {"dim": [{"size": "141"}]}}}, "dtype": {"type": "DT_FLOAT"}}}, {"name": "StatefulPartitionedCall/model/transformer/decoder/decoder_layer/cross_attention/layer_normalization_3/mul_3/ReadVariableOp", "op": "Const", "attr": {"value": {"tensor": {"dtype": "DT_FLOAT", "tensorShape": {"dim": [{"size": "141"}]}}}, "dtype": {"type": "DT_FLOAT"}}}, {"name": "StatefulPartitionedCall/model/transformer/decoder/decoder_layer/cross_attention/layer_normalization_3/add/ReadVariableOp", "op": "Const", "attr": {"dtype": {"type": "DT_FLOAT"}, "value": {"tensor": {"dtype": "DT_FLOAT", "tensorShape": {"dim": [{"size": "141"}]}}}}}, {"name": "StatefulPartitionedCall/model/transformer/decoder/decoder_layer/feed_forward_1/sequential_1/dense_3/Tensordot/free", "op": "Const", "attr": {"value": {"tensor": {"dtype": "DT_INT32", "tensorShape": {"dim": [{"size": "2"}]}}}, "dtype": {"type": "DT_INT32"}}}, {"name": "StatefulPartitionedCall/model/transformer/decoder/decoder_layer/feed_forward_1/sequential_1/dense_3/Tensordot/GatherV2/axis", "op": "Const", "attr": {"dtype": {"type": "DT_INT32"}, "value": {"tensor": {"dtype": "DT_INT32", "tensorShape": {}}}}}, {"name": "StatefulPartitionedCall/model/transformer/decoder/decoder_layer/feed_forward_1/sequential_1/dense_3/Tensordot/Const_2", "op": "Const", "attr": {"value": {"tensor": {"dtype": "DT_INT32", "tensorShape": {"dim": [{"size": "1"}]}}}, "dtype": {"type": "DT_INT32"}}}, {"name": "StatefulPartitionedCall/model/transformer/decoder/decoder_layer/feed_forward_1/sequential_1/dense_3/Tensordot/concat_1/axis", "op": "Const", "attr": {"value": {"tensor": {"dtype": "DT_INT32", "tensorShape": {}}}, "dtype": {"type": "DT_INT32"}}}, {"name": "StatefulPartitionedCall/model/transformer/decoder/decoder_layer/feed_forward_1/sequential_1/dense_3/BiasAdd/ReadVariableOp", "op": "Const", "attr": {"value": {"tensor": {"dtype": "DT_FLOAT", "tensorShape": {"dim": [{"size": "389"}]}}}, "dtype": {"type": "DT_FLOAT"}}}, {"name": "StatefulPartitionedCall/model/transformer/decoder/decoder_layer/feed_forward_1/sequential_1/dense_4/Tensordot/free", "op": "Const", "attr": {"value": {"tensor": {"dtype": "DT_INT32", "tensorShape": {"dim": [{"size": "2"}]}}}, "dtype": {"type": "DT_INT32"}}}, {"name": "StatefulPartitionedCall/model/transformer/decoder/decoder_layer/feed_forward_1/sequential_1/dense_4/Tensordot/GatherV2/axis", "op": "Const", "attr": {"value": {"tensor": {"dtype": "DT_INT32", "tensorShape": {}}}, "dtype": {"type": "DT_INT32"}}}, {"name": "StatefulPartitionedCall/model/transformer/decoder/decoder_layer/feed_forward_1/sequential_1/dense_4/Tensordot/Const_2", "op": "Const", "attr": {"dtype": {"type": "DT_INT32"}, "value": {"tensor": {"dtype": "DT_INT32", "tensorShape": {"dim": [{"size": "1"}]}}}}}, {"name": "StatefulPartitionedCall/model/transformer/decoder/decoder_layer/feed_forward_1/sequential_1/dense_4/Tensordot/concat_1/axis", "op": "Const", "attr": {"value": {"tensor": {"dtype": "DT_INT32", "tensorShape": {}}}, "dtype": {"type": "DT_INT32"}}}, {"name": "StatefulPartitionedCall/model/transformer/decoder/decoder_layer/feed_forward_1/sequential_1/dense_4/BiasAdd/ReadVariableOp", "op": "Const", "attr": {"dtype": {"type": "DT_FLOAT"}, "value": {"tensor": {"dtype": "DT_FLOAT", "tensorShape": {"dim": [{"size": "141"}]}}}}}, {"name": "StatefulPartitionedCall/model/transformer/decoder/decoder_layer/feed_forward_1/layer_normalization_4/mul_3/ReadVariableOp", "op": "Const", "attr": {"value": {"tensor": {"dtype": "DT_FLOAT", "tensorShape": {"dim": [{"size": "141"}]}}}, "dtype": {"type": "DT_FLOAT"}}}, {"name": "StatefulPartitionedCall/model/transformer/decoder/decoder_layer/feed_forward_1/layer_normalization_4/add/ReadVariableOp", "op": "Const", "attr": {"value": {"tensor": {"dtype": "DT_FLOAT", "tensorShape": {"dim": [{"size": "141"}]}}}, "dtype": {"type": "DT_FLOAT"}}}, {"name": "StatefulPartitionedCall/model/transformer/dense_5/Tensordot/free", "op": "Const", "attr": {"value": {"tensor": {"dtype": "DT_INT32", "tensorShape": {"dim": [{"size": "2"}]}}}, "dtype": {"type": "DT_INT32"}}}, {"name": "StatefulPartitionedCall/model/transformer/dense_5/Tensordot/GatherV2/axis", "op": "Const", "attr": {"dtype": {"type": "DT_INT32"}, "value": {"tensor": {"dtype": "DT_INT32", "tensorShape": {}}}}}, {"name": "StatefulPartitionedCall/model/transformer/dense_5/Tensordot/Const_2", "op": "Const", "attr": {"value": {"tensor": {"dtype": "DT_INT32", "tensorShape": {"dim": [{"size": "1"}]}}}, "dtype": {"type": "DT_INT32"}}}, {"name": "StatefulPartitionedCall/model/transformer/dense_5/Tensordot/concat_1/axis", "op": "Const", "attr": {"value": {"tensor": {"dtype": "DT_INT32", "tensorShape": {}}}, "dtype": {"type": "DT_INT32"}}}, {"name": "StatefulPartitionedCall/model/transformer/dense_5/BiasAdd/ReadVariableOp", "op": "Const", "attr": {"value": {"tensor": {"dtype": "DT_FLOAT", "tensorShape": {"dim": [{"size": "60"}]}}}, "dtype": {"type": "DT_FLOAT"}}}, {"name": "input_1", "op": "Placeholder", "attr": {"shape": {"shape": {"dim": [{"size": "-1"}, {"size": "900"}, {"size": "144"}]}}, "dtype": {"type": "DT_FLOAT"}}}, {"name": "input_2", "op": "Placeholder", "attr": {"dtype": {"type": "DT_FLOAT"}, "shape": {"shape": {"dim": [{"size": "-1"}, {"size": "100"}]}}}}, {"name": "StatefulPartitionedCall/model/transformer/encoder/positional_embedding/dense/Tensordot/Shape", "op": "Shape", "input": ["input_1"], "attr": {"T": {"type": "DT_FLOAT"}, "out_type": {"type": "DT_INT32"}}}, {"name": "StatefulPartitionedCall/model/transformer/encoder/positional_embedding/Shape", "op": "Shape", "input": ["input_1"], "attr": {"T": {"type": "DT_FLOAT"}, "out_type": {"type": "DT_INT32"}}}, {"name": "StatefulPartitionedCall/model/transformer/decoder/positional_embedding_1/embedding/Cast", "op": "Cast", "input": ["input_2"], "attr": {"SrcT": {"type": "DT_FLOAT"}, "DstT": {"type": "DT_INT32"}, "Truncate": {"b": false}}}, {"name": "StatefulPartitionedCall/model/transformer/decoder/positional_embedding_1/Shape", "op": "Shape", "input": ["input_2"], "attr": {"out_type": {"type": "DT_INT32"}, "T": {"type": "DT_FLOAT"}}}, {"name": "StatefulPartitionedCall/model/transformer/decoder/positional_embedding_1/NotEqual", "op": "NotEqual", "input": ["input_2", "StatefulPartitionedCall/model/transformer/decoder/positional_embedding_1/NotEqual/y"], "attr": {"T": {"type": "DT_FLOAT"}, "incompatible_shape_error": {"b": true}}}, {"name": "StatefulPartitionedCall/model/transformer/encoder/positional_embedding/dense/Tensordot/GatherV2_1", "op": "GatherV2", "input": ["StatefulPartitionedCall/model/transformer/encoder/positional_embedding/dense/Tensordot/Shape", "StatefulPartitionedCall/model/transformer/encoder/positional_embedding/dense/Tensordot/axes", "StatefulPartitionedCall/model/transformer/encoder/positional_embedding/dense/Tensordot/GatherV2_1/axis"], "attr": {"Tindices": {"type": "DT_INT32"}, "batch_dims": {"i": "0"}, "Taxis": {"type": "DT_INT32"}, "Tparams": {"type": "DT_INT32"}}}, {"name": "StatefulPartitionedCall/model/transformer/encoder/positional_embedding/dense/Tensordot/GatherV2", "op": "GatherV2", "input": ["StatefulPartitionedCall/model/transformer/encoder/positional_embedding/dense/Tensordot/Shape", "StatefulPartitionedCall/model/transformer/encoder/positional_embedding/dense/Tensordot/free", "StatefulPartitionedCall/model/transformer/encoder/positional_embedding/dense/Tensordot/GatherV2/axis"], "attr": {"Tparams": {"type": "DT_INT32"}, "Taxis": {"type": "DT_INT32"}, "Tindices": {"type": "DT_INT32"}, "batch_dims": {"i": "0"}}}, {"name": "StatefulPartitionedCall/model/transformer/encoder/positional_embedding/strided_slice", "op": "StridedSlice", "input": ["StatefulPartitionedCall/model/transformer/encoder/positional_embedding/Shape", "StatefulPartitionedCall/model/transformer/encoder/positional_embedding/strided_slice/stack", "StatefulPartitionedCall/model/transformer/encoder/positional_embedding/strided_slice/stack_1", "StatefulPartitionedCall/model/transformer/encoder/positional_embedding/strided_slice/stack_2"], "attr": {"shrink_axis_mask": {"i": "1"}, "begin_mask": {"i": "0"}, "ellipsis_mask": {"i": "0"}, "Index": {"type": "DT_INT32"}, "end_mask": {"i": "0"}, "new_axis_mask": {"i": "0"}, "T": {"type": "DT_INT32"}}}, {"name": "StatefulPartitionedCall/model/transformer/decoder/positional_embedding_1/embedding/embedding_lookup", "op": "GatherV2", "input": ["unknown_18", "StatefulPartitionedCall/model/transformer/decoder/positional_embedding_1/embedding/Cast", "StatefulPartitionedCall/model/transformer/decoder/positional_embedding_1/embedding/embedding_lookup/axis"], "attr": {"Tparams": {"type": "DT_FLOAT"}, "Tindices": {"type": "DT_INT32"}, "Taxis": {"type": "DT_INT32"}, "batch_dims": {"i": "0"}}}, {"name": "StatefulPartitionedCall/model/transformer/decoder/positional_embedding_1/strided_slice", "op": "StridedSlice", "input": ["StatefulPartitionedCall/model/transformer/decoder/positional_embedding_1/Shape", "StatefulPartitionedCall/model/transformer/decoder/positional_embedding_1/strided_slice/stack", "StatefulPartitionedCall/model/transformer/decoder/positional_embedding_1/strided_slice/stack_1", "StatefulPartitionedCall/model/transformer/decoder/positional_embedding_1/strided_slice/stack_2"], "attr": {"shrink_axis_mask": {"i": "1"}, "begin_mask": {"i": "0"}, "new_axis_mask": {"i": "0"}, "Index": {"type": "DT_INT32"}, "end_mask": {"i": "0"}, "T": {"type": "DT_INT32"}, "ellipsis_mask": {"i": "0"}}}, {"name": "StatefulPartitionedCall/model/transformer/decoder/decoder_layer/causal_self_attention/multi_head_attention_1/strided_slice", "op": "StridedSlice", "input": ["StatefulPartitionedCall/model/transformer/decoder/positional_embedding_1/NotEqual", "StatefulPartitionedCall/model/transformer/decoder/decoder_layer/causal_self_attention/multi_head_attention_1/strided_slice/stack", "StatefulPartitionedCall/model/transformer/decoder/decoder_layer/causal_self_attention/multi_head_attention_1/strided_slice/stack_1", "StatefulPartitionedCall/model/transformer/decoder/decoder_layer/causal_self_attention/multi_head_attention_1/strided_slice/stack_2"], "attr": {"new_axis_mask": {"i": "4"}, "T": {"type": "DT_BOOL"}, "Index": {"type": "DT_INT32"}, "begin_mask": {"i": "3"}, "end_mask": {"i": "3"}, "ellipsis_mask": {"i": "0"}, "shrink_axis_mask": {"i": "0"}}}, {"name": "StatefulPartitionedCall/model/transformer/decoder/decoder_layer/causal_self_attention/multi_head_attention_1/strided_slice_1", "op": "StridedSlice", "input": ["StatefulPartitionedCall/model/transformer/decoder/positional_embedding_1/NotEqual", "StatefulPartitionedCall/model/transformer/decoder/decoder_layer/causal_self_attention/multi_head_attention_1/strided_slice_1/stack", "StatefulPartitionedCall/model/transformer/decoder/decoder_layer/causal_self_attention/multi_head_attention_1/strided_slice_1/stack_1", "StatefulPartitionedCall/model/transformer/decoder/decoder_layer/causal_self_attention/multi_head_attention_1/strided_slice_1/stack_2"], "attr": {"T": {"type": "DT_BOOL"}, "end_mask": {"i": "5"}, "begin_mask": {"i": "5"}, "new_axis_mask": {"i": "2"}, "shrink_axis_mask": {"i": "0"}, "ellipsis_mask": {"i": "0"}, "Index": {"type": "DT_INT32"}}}, {"name": "StatefulPartitionedCall/model/transformer/decoder/decoder_layer/causal_self_attention/multi_head_attention_1/strided_slice_2", "op": "StridedSlice", "input": ["StatefulPartitionedCall/model/transformer/decoder/positional_embedding_1/NotEqual", "StatefulPartitionedCall/model/transformer/decoder/decoder_layer/causal_self_attention/multi_head_attention_1/strided_slice_2/stack", "StatefulPartitionedCall/model/transformer/decoder/decoder_layer/causal_self_attention/multi_head_attention_1/strided_slice_2/stack_1", "StatefulPartitionedCall/model/transformer/decoder/decoder_layer/causal_self_attention/multi_head_attention_1/strided_slice_2/stack_2"], "attr": {"ellipsis_mask": {"i": "0"}, "Index": {"type": "DT_INT32"}, "T": {"type": "DT_BOOL"}, "shrink_axis_mask": {"i": "0"}, "end_mask": {"i": "5"}, "new_axis_mask": {"i": "2"}, "begin_mask": {"i": "5"}}}, {"name": "StatefulPartitionedCall/model/transformer/decoder/decoder_layer/causal_self_attention/add_2/ExpandDims", "op": "ExpandDims", "input": ["StatefulPartitionedCall/model/transformer/decoder/positional_embedding_1/NotEqual", "StatefulPartitionedCall/model/transformer/decoder/decoder_layer/causal_self_attention/add_2/ExpandDims/dim"], "attr": {"Tdim": {"type": "DT_INT32"}, "T": {"type": "DT_BOOL"}}}, {"name": "StatefulPartitionedCall/model/transformer/decoder/decoder_layer/causal_self_attention/add_2/ExpandDims_1", "op": "ExpandDims", "input": ["StatefulPartitionedCall/model/transformer/decoder/positional_embedding_1/NotEqual", "StatefulPartitionedCall/model/transformer/decoder/decoder_layer/causal_self_attention/add_2/ExpandDims_1/dim"], "attr": {"T": {"type": "DT_BOOL"}, "Tdim": {"type": "DT_INT32"}}}, {"name": "StatefulPartitionedCall/model/transformer/encoder/positional_embedding/dense/Tensordot/Prod_1", "op": "Prod", "input": ["StatefulPartitionedCall/model/transformer/encoder/positional_embedding/dense/Tensordot/GatherV2_1", "StatefulPartitionedCall/model/transformer/encoder/positional_embedding/dense/Tensordot/Const_1"], "attr": {"Tidx": {"type": "DT_INT32"}, "T": {"type": "DT_INT32"}, "keep_dims": {"b": false}}}, {"name": "StatefulPartitionedCall/model/transformer/encoder/positional_embedding/dense/Tensordot/Prod", "op": "Prod", "input": ["StatefulPartitionedCall/model/transformer/encoder/positional_embedding/dense/Tensordot/GatherV2", "StatefulPartitionedCall/model/transformer/encoder/positional_embedding/dense/Tensordot/Const"], "attr": {"keep_dims": {"b": false}, "T": {"type": "DT_INT32"}, "Tidx": {"type": "DT_INT32"}}}, {"name": "StatefulPartitionedCall/model/transformer/encoder/positional_embedding/dense/Tensordot/concat_1", "op": "ConcatV2", "input": ["StatefulPartitionedCall/model/transformer/encoder/positional_embedding/dense/Tensordot/GatherV2", "StatefulPartitionedCall/model/transformer/encoder/positional_embedding/dense/Tensordot/Const_2", "StatefulPartitionedCall/model/transformer/encoder/positional_embedding/dense/Tensordot/concat_1/axis"], "attr": {"N": {"i": "2"}, "Tidx": {"type": "DT_INT32"}, "T": {"type": "DT_INT32"}}}, {"name": "StatefulPartitionedCall/model/transformer/encoder/positional_embedding/strided_slice_1/stack_1", "op": "Pack", "input": ["StatefulPartitionedCall/model/transformer/encoder/positional_embedding/strided_slice_1/stack_1/0", "StatefulPartitionedCall/model/transformer/encoder/positional_embedding/strided_slice", "StatefulPartitionedCall/model/transformer/encoder/positional_embedding/strided_slice_1/stack_1/2"], "attr": {"T": {"type": "DT_INT32"}, "axis": {"i": "0"}, "N": {"i": "3"}}}, {"name": "StatefulPartitionedCall/model/transformer/decoder/positional_embedding_1/mul", "op": "Mul", "input": ["StatefulPartitionedCall/model/transformer/decoder/positional_embedding_1/embedding/embedding_lookup", "StatefulPartitionedCall/model/transformer/decoder/positional_embedding_1/Sqrt"], "attr": {"T": {"type": "DT_FLOAT"}}}, {"name": "StatefulPartitionedCall/model/transformer/decoder/positional_embedding_1/strided_slice_1/stack_1", "op": "Pack", "input": ["StatefulPartitionedCall/model/transformer/decoder/positional_embedding_1/strided_slice_1/stack_1/0", "StatefulPartitionedCall/model/transformer/decoder/positional_embedding_1/strided_slice", "StatefulPartitionedCall/model/transformer/decoder/positional_embedding_1/strided_slice_1/stack_1/2"], "attr": {"T": {"type": "DT_INT32"}, "N": {"i": "3"}, "axis": {"i": "0"}}}, {"name": "StatefulPartitionedCall/model/transformer/decoder/decoder_layer/causal_self_attention/multi_head_attention_1/and", "op": "LogicalAnd", "input": ["StatefulPartitionedCall/model/transformer/decoder/decoder_layer/causal_self_attention/multi_head_attention_1/strided_slice", "StatefulPartitionedCall/model/transformer/decoder/decoder_layer/causal_self_attention/multi_head_attention_1/strided_slice_1"]}, {"name": "StatefulPartitionedCall/model/transformer/decoder/decoder_layer/causal_self_attention/add_2/concat", "op": "ConcatV2", "input": ["StatefulPartitionedCall/model/transformer/decoder/decoder_layer/causal_self_attention/add_2/ExpandDims", "StatefulPartitionedCall/model/transformer/decoder/decoder_layer/causal_self_attention/add_2/ExpandDims_1", "StatefulPartitionedCall/model/transformer/decoder/decoder_layer/causal_self_attention/add_2/concat/axis"], "attr": {"T": {"type": "DT_BOOL"}, "N": {"i": "2"}, "Tidx": {"type": "DT_INT32"}}}, {"name": "StatefulPartitionedCall/model/transformer/encoder/positional_embedding/dense/Tensordot/stack", "op": "Pack", "input": ["StatefulPartitionedCall/model/transformer/encoder/positional_embedding/dense/Tensordot/Prod", "StatefulPartitionedCall/model/transformer/encoder/positional_embedding/dense/Tensordot/Prod_1"], "attr": {"axis": {"i": "0"}, "T": {"type": "DT_INT32"}, "N": {"i": "2"}}}, {"name": "StatefulPartitionedCall/model/transformer/encoder/positional_embedding/strided_slice_1", "op": "StridedSlice", "input": ["unknown_1", "StatefulPartitionedCall/model/transformer/encoder/positional_embedding/strided_slice_1/stack", "StatefulPartitionedCall/model/transformer/encoder/positional_embedding/strided_slice_1/stack_1", "StatefulPartitionedCall/model/transformer/encoder/positional_embedding/strided_slice_1/stack_2"], "attr": {"end_mask": {"i": "0"}, "ellipsis_mask": {"i": "0"}, "new_axis_mask": {"i": "1"}, "T": {"type": "DT_FLOAT"}, "shrink_axis_mask": {"i": "0"}, "Index": {"type": "DT_INT32"}, "begin_mask": {"i": "6"}}}, {"name": "StatefulPartitionedCall/model/transformer/decoder/positional_embedding_1/strided_slice_1", "op": "StridedSlice", "input": ["unknown_19", "StatefulPartitionedCall/model/transformer/decoder/positional_embedding_1/strided_slice_1/stack", "StatefulPartitionedCall/model/transformer/decoder/positional_embedding_1/strided_slice_1/stack_1", "StatefulPartitionedCall/model/transformer/decoder/positional_embedding_1/strided_slice_1/stack_2"], "attr": {"shrink_axis_mask": {"i": "0"}, "T": {"type": "DT_FLOAT"}, "new_axis_mask": {"i": "1"}, "Index": {"type": "DT_INT32"}, "end_mask": {"i": "0"}, "begin_mask": {"i": "6"}, "ellipsis_mask": {"i": "0"}}}, {"name": "StatefulPartitionedCall/model/transformer/decoder/decoder_layer/causal_self_attention/multi_head_attention_1/and_1", "op": "LogicalAnd", "input": ["StatefulPartitionedCall/model/transformer/decoder/decoder_layer/causal_self_attention/multi_head_attention_1/and", "StatefulPartitionedCall/model/transformer/decoder/decoder_layer/causal_self_attention/multi_head_attention_1/strided_slice_2"]}, {"name": "StatefulPartitionedCall/model/transformer/decoder/decoder_layer/causal_self_attention/add_2/All", "op": "All", "input": ["StatefulPartitionedCall/model/transformer/decoder/decoder_layer/causal_self_attention/add_2/concat", "StatefulPartitionedCall/model/transformer/decoder/decoder_layer/causal_self_attention/add_2/All/reduction_indices"], "attr": {"Tidx": {"type": "DT_INT32"}, "keep_dims": {"b": false}}}, {"name": "StatefulPartitionedCall/model/transformer/encoder/positional_embedding/dense/Tensordot/Reshape", "op": "Reshape", "input": ["input_1", "StatefulPartitionedCall/model/transformer/encoder/positional_embedding/dense/Tensordot/stack"], "attr": {"Tshape": {"type": "DT_INT32"}, "T": {"type": "DT_FLOAT"}}}, {"name": "StatefulPartitionedCall/model/transformer/decoder/positional_embedding_1/add", "op": "AddV2", "input": ["StatefulPartitionedCall/model/transformer/decoder/positional_embedding_1/mul", "StatefulPartitionedCall/model/transformer/decoder/positional_embedding_1/strided_slice_1"], "attr": {"T": {"type": "DT_FLOAT"}}}, {"name": "StatefulPartitionedCall/model/transformer/decoder/decoder_layer/cross_attention/multi_head_attention_2/strided_slice", "op": "StridedSlice", "input": ["StatefulPartitionedCall/model/transformer/decoder/decoder_layer/causal_self_attention/add_2/All", "StatefulPartitionedCall/model/transformer/decoder/decoder_layer/cross_attention/multi_head_attention_2/strided_slice/stack", "StatefulPartitionedCall/model/transformer/decoder/decoder_layer/cross_attention/multi_head_attention_2/strided_slice/stack_1", "StatefulPartitionedCall/model/transformer/decoder/decoder_layer/cross_attention/multi_head_attention_2/strided_slice/stack_2"], "attr": {"T": {"type": "DT_BOOL"}, "ellipsis_mask": {"i": "0"}, "begin_mask": {"i": "3"}, "Index": {"type": "DT_INT32"}, "new_axis_mask": {"i": "4"}, "end_mask": {"i": "3"}, "shrink_axis_mask": {"i": "0"}}}, {"name": "StatefulPartitionedCall/model/transformer/encoder/positional_embedding/dense/Tensordot/MatMul", "op": "MatMul", "input": ["StatefulPartitionedCall/model/transformer/encoder/positional_embedding/dense/Tensordot/Reshape", "StatefulPartitionedCall/model/transformer/encoder/positional_embedding/dense/Tensordot/ReadVariableOp"], "device": "/device:CPU:0", "attr": {"T": {"type": "DT_FLOAT"}, "transpose_a": {"b": false}, "transpose_b": {"b": false}}}, {"name": "StatefulPartitionedCall/model/transformer/decoder/decoder_layer/causal_self_attention/multi_head_attention_1/key/einsum/Einsum", "op": "Einsum", "input": ["StatefulPartitionedCall/model/transformer/decoder/positional_embedding_1/add", "StatefulPartitionedCall/model/transformer/decoder/decoder_layer/causal_self_attention/multi_head_attention_1/key/einsum/Einsum/ReadVariableOp"], "attr": {"T": {"type": "DT_FLOAT"}, "equation": {"s": "YWJjLGNkZS0+YWJkZQ=="}, "N": {"i": "2"}}}, {"name": "StatefulPartitionedCall/model/transformer/decoder/decoder_layer/causal_self_attention/multi_head_attention_1/query/einsum/Einsum", "op": "Einsum", "input": ["StatefulPartitionedCall/model/transformer/decoder/positional_embedding_1/add", "StatefulPartitionedCall/model/transformer/decoder/decoder_layer/causal_self_attention/multi_head_attention_1/query/einsum/Einsum/ReadVariableOp"], "attr": {"N": {"i": "2"}, "T": {"type": "DT_FLOAT"}, "equation": {"s": "YWJjLGNkZS0+YWJkZQ=="}}}, {"name": "StatefulPartitionedCall/model/transformer/decoder/decoder_layer/causal_self_attention/multi_head_attention_1/Shape", "op": "Shape", "input": ["StatefulPartitionedCall/model/transformer/decoder/positional_embedding_1/add"], "attr": {"out_type": {"type": "DT_INT32"}, "T": {"type": "DT_FLOAT"}}}, {"name": "StatefulPartitionedCall/model/transformer/decoder/decoder_layer/causal_self_attention/multi_head_attention_1/Shape_1", "op": "Shape", "input": ["StatefulPartitionedCall/model/transformer/decoder/positional_embedding_1/add"], "attr": {"T": {"type": "DT_FLOAT"}, "out_type": {"type": "DT_INT32"}}}, {"name": "StatefulPartitionedCall/model/transformer/decoder/decoder_layer/causal_self_attention/multi_head_attention_1/value/einsum/Einsum", "op": "Einsum", "input": ["StatefulPartitionedCall/model/transformer/decoder/positional_embedding_1/add", "StatefulPartitionedCall/model/transformer/decoder/decoder_layer/causal_self_attention/multi_head_attention_1/value/einsum/Einsum/ReadVariableOp"], "attr": {"T": {"type": "DT_FLOAT"}, "equation": {"s": "YWJjLGNkZS0+YWJkZQ=="}, "N": {"i": "2"}}}, {"name": "StatefulPartitionedCall/model/transformer/decoder/decoder_layer/cross_attention/multi_head_attention_2/ExpandDims", "op": "ExpandDims", "input": ["StatefulPartitionedCall/model/transformer/decoder/decoder_layer/cross_attention/multi_head_attention_2/strided_slice", "StatefulPartitionedCall/model/transformer/decoder/decoder_layer/cross_attention/multi_head_attention_2/ExpandDims/dim"], "attr": {"Tdim": {"type": "DT_INT32"}, "T": {"type": "DT_BOOL"}}}, {"name": "StatefulPartitionedCall/model/transformer/encoder/positional_embedding/dense/Tensordot", "op": "Reshape", "input": ["StatefulPartitionedCall/model/transformer/encoder/positional_embedding/dense/Tensordot/MatMul", "StatefulPartitionedCall/model/transformer/encoder/positional_embedding/dense/Tensordot/concat_1"], "attr": {"T": {"type": "DT_FLOAT"}, "Tshape": {"type": "DT_INT32"}}}, {"name": "StatefulPartitionedCall/model/transformer/decoder/decoder_layer/causal_self_attention/multi_head_attention_1/key/add", "op": "AddV2", "input": ["StatefulPartitionedCall/model/transformer/decoder/decoder_layer/causal_self_attention/multi_head_attention_1/key/einsum/Einsum", "StatefulPartitionedCall/model/transformer/decoder/decoder_layer/causal_self_attention/multi_head_attention_1/key/add/ReadVariableOp"], "attr": {"T": {"type": "DT_FLOAT"}}}, {"name": "StatefulPartitionedCall/model/transformer/decoder/decoder_layer/causal_self_attention/multi_head_attention_1/query/add", "op": "AddV2", "input": ["StatefulPartitionedCall/model/transformer/decoder/decoder_layer/causal_self_attention/multi_head_attention_1/query/einsum/Einsum", "StatefulPartitionedCall/model/transformer/decoder/decoder_layer/causal_self_attention/multi_head_attention_1/query/add/ReadVariableOp"], "attr": {"T": {"type": "DT_FLOAT"}}}, {"name": "StatefulPartitionedCall/model/transformer/decoder/decoder_layer/causal_self_attention/multi_head_attention_1/strided_slice_3", "op": "StridedSlice", "input": ["StatefulPartitionedCall/model/transformer/decoder/decoder_layer/causal_self_attention/multi_head_attention_1/Shape", "StatefulPartitionedCall/model/transformer/decoder/decoder_layer/causal_self_attention/multi_head_attention_1/strided_slice_3/stack", "StatefulPartitionedCall/model/transformer/decoder/decoder_layer/causal_self_attention/multi_head_attention_1/strided_slice_3/stack_1", "StatefulPartitionedCall/model/transformer/decoder/decoder_layer/causal_self_attention/multi_head_attention_1/strided_slice_3/stack_2"], "attr": {"new_axis_mask": {"i": "0"}, "T": {"type": "DT_INT32"}, "Index": {"type": "DT_INT32"}, "begin_mask": {"i": "0"}, "shrink_axis_mask": {"i": "1"}, "ellipsis_mask": {"i": "0"}, "end_mask": {"i": "0"}}}, {"name": "StatefulPartitionedCall/model/transformer/decoder/decoder_layer/causal_self_attention/multi_head_attention_1/strided_slice_4", "op": "StridedSlice", "input": ["StatefulPartitionedCall/model/transformer/decoder/decoder_layer/causal_self_attention/multi_head_attention_1/Shape_1", "StatefulPartitionedCall/model/transformer/decoder/decoder_layer/causal_self_attention/multi_head_attention_1/strided_slice_4/stack", "StatefulPartitionedCall/model/transformer/decoder/decoder_layer/causal_self_attention/multi_head_attention_1/strided_slice_4/stack_1", "StatefulPartitionedCall/model/transformer/decoder/decoder_layer/causal_self_attention/multi_head_attention_1/strided_slice_4/stack_2"], "attr": {"new_axis_mask": {"i": "0"}, "shrink_axis_mask": {"i": "1"}, "begin_mask": {"i": "0"}, "Index": {"type": "DT_INT32"}, "end_mask": {"i": "0"}, "T": {"type": "DT_INT32"}, "ellipsis_mask": {"i": "0"}}}, {"name": "StatefulPartitionedCall/model/transformer/decoder/decoder_layer/causal_self_attention/multi_head_attention_1/value/add", "op": "AddV2", "input": ["StatefulPartitionedCall/model/transformer/decoder/decoder_layer/causal_self_attention/multi_head_attention_1/value/einsum/Einsum", "StatefulPartitionedCall/model/transformer/decoder/decoder_layer/causal_self_attention/multi_head_attention_1/value/add/ReadVariableOp"], "attr": {"T": {"type": "DT_FLOAT"}}}, {"name": "StatefulPartitionedCall/model/transformer/decoder/decoder_layer/cross_attention/multi_head_attention_2/softmax_2/Cast", "op": "Cast", "input": ["StatefulPartitionedCall/model/transformer/decoder/decoder_layer/cross_attention/multi_head_attention_2/ExpandDims"], "attr": {"DstT": {"type": "DT_FLOAT"}, "Truncate": {"b": false}, "SrcT": {"type": "DT_BOOL"}}}, {"name": "StatefulPartitionedCall/model/transformer/encoder/positional_embedding/dense/BiasAdd", "op": "BiasAdd", "input": ["StatefulPartitionedCall/model/transformer/encoder/positional_embedding/dense/Tensordot", "StatefulPartitionedCall/model/transformer/encoder/positional_embedding/dense/BiasAdd/ReadVariableOp"], "attr": {"T": {"type": "DT_FLOAT"}, "data_format": {"s": "TkhXQw=="}}}, {"name": "StatefulPartitionedCall/model/transformer/decoder/decoder_layer/causal_self_attention/multi_head_attention_1/Mul", "op": "Mul", "input": ["StatefulPartitionedCall/model/transformer/decoder/decoder_layer/causal_self_attention/multi_head_attention_1/query/add", "StatefulPartitionedCall/model/transformer/decoder/decoder_layer/causal_self_attention/multi_head_attention_1/Mul/y"], "attr": {"T": {"type": "DT_FLOAT"}}}, {"name": "StatefulPartitionedCall/model/transformer/decoder/decoder_layer/causal_self_attention/multi_head_attention_1/ones/packed", "op": "Pack", "input": ["StatefulPartitionedCall/model/transformer/decoder/decoder_layer/causal_self_attention/multi_head_attention_1/ones/packed/0", "StatefulPartitionedCall/model/transformer/decoder/decoder_layer/causal_self_attention/multi_head_attention_1/strided_slice_3", "StatefulPartitionedCall/model/transformer/decoder/decoder_layer/causal_self_attention/multi_head_attention_1/strided_slice_4"], "attr": {"T": {"type": "DT_INT32"}, "N": {"i": "3"}, "axis": {"i": "0"}}}, {"name": "StatefulPartitionedCall/model/transformer/decoder/decoder_layer/cross_attention/multi_head_attention_2/softmax_2/sub", "op": "Sub", "input": ["StatefulPartitionedCall/model/transformer/decoder/decoder_layer/cross_attention/multi_head_attention_2/softmax_2/sub/x", "StatefulPartitionedCall/model/transformer/decoder/decoder_layer/cross_attention/multi_head_attention_2/softmax_2/Cast"], "attr": {"T": {"type": "DT_FLOAT"}}}, {"name": "StatefulPartitionedCall/model/transformer/encoder/positional_embedding/add", "op": "AddV2", "input": ["StatefulPartitionedCall/model/transformer/encoder/positional_embedding/dense/BiasAdd", "StatefulPartitionedCall/model/transformer/encoder/positional_embedding/strided_slice_1"], "attr": {"T": {"type": "DT_FLOAT"}}}, {"name": "StatefulPartitionedCall/model/transformer/decoder/decoder_layer/causal_self_attention/multi_head_attention_1/einsum/Einsum", "op": "Einsum", "input": ["StatefulPartitionedCall/model/transformer/decoder/decoder_layer/causal_self_attention/multi_head_attention_1/key/add", "StatefulPartitionedCall/model/transformer/decoder/decoder_layer/causal_self_attention/multi_head_attention_1/Mul"], "attr": {"equation": {"s": "YWVjZCxhYmNkLT5hY2Jl"}, "N": {"i": "2"}, "T": {"type": "DT_FLOAT"}}}, {"name": "StatefulPartitionedCall/model/transformer/decoder/decoder_layer/causal_self_attention/multi_head_attention_1/ones", "op": "Fill", "input": ["StatefulPartitionedCall/model/transformer/decoder/decoder_layer/causal_self_attention/multi_head_attention_1/ones/packed", "StatefulPartitionedCall/model/transformer/decoder/decoder_layer/causal_self_attention/multi_head_attention_1/ones/Const"], "attr": {"T": {"type": "DT_BOOL"}, "index_type": {"type": "DT_INT32"}}}, {"name": "StatefulPartitionedCall/model/transformer/decoder/decoder_layer/cross_attention/multi_head_attention_2/softmax_2/mul", "op": "Mul", "input": ["StatefulPartitionedCall/model/transformer/decoder/decoder_layer/cross_attention/multi_head_attention_2/softmax_2/sub", "StatefulPartitionedCall/model/transformer/decoder/decoder_layer/cross_attention/multi_head_attention_2/softmax_2/mul/y"], "attr": {"T": {"type": "DT_FLOAT"}}}, {"name": "StatefulPartitionedCall/model/transformer/encoder/encoder_layer/global_self_attention/multi_head_attention/key/einsum/Einsum", "op": "Einsum", "input": ["StatefulPartitionedCall/model/transformer/encoder/positional_embedding/add", "StatefulPartitionedCall/model/transformer/encoder/encoder_layer/global_self_attention/multi_head_attention/key/einsum/Einsum/ReadVariableOp"], "attr": {"T": {"type": "DT_FLOAT"}, "equation": {"s": "YWJjLGNkZS0+YWJkZQ=="}, "N": {"i": "2"}}}, {"name": "StatefulPartitionedCall/model/transformer/encoder/encoder_layer/global_self_attention/multi_head_attention/query/einsum/Einsum", "op": "Einsum", "input": ["StatefulPartitionedCall/model/transformer/encoder/positional_embedding/add", "StatefulPartitionedCall/model/transformer/encoder/encoder_layer/global_self_attention/multi_head_attention/query/einsum/Einsum/ReadVariableOp"], "attr": {"N": {"i": "2"}, "T": {"type": "DT_FLOAT"}, "equation": {"s": "YWJjLGNkZS0+YWJkZQ=="}}}, {"name": "StatefulPartitionedCall/model/transformer/encoder/encoder_layer/global_self_attention/multi_head_attention/value/einsum/Einsum", "op": "Einsum", "input": ["StatefulPartitionedCall/model/transformer/encoder/positional_embedding/add", "StatefulPartitionedCall/model/transformer/encoder/encoder_layer/global_self_attention/multi_head_attention/value/einsum/Einsum/ReadVariableOp"], "attr": {"N": {"i": "2"}, "T": {"type": "DT_FLOAT"}, "equation": {"s": "YWJjLGNkZS0+YWJkZQ=="}}}, {"name": "StatefulPartitionedCall/model/transformer/decoder/decoder_layer/causal_self_attention/multi_head_attention_1/MatrixBandPart", "op": "MatrixBandPart", "input": ["StatefulPartitionedCall/model/transformer/decoder/decoder_layer/causal_self_attention/multi_head_attention_1/ones", "StatefulPartitionedCall/model/transformer/decoder/decoder_layer/causal_self_attention/multi_head_attention_1/MatrixBandPart/num_lower", "StatefulPartitionedCall/model/transformer/decoder/decoder_layer/causal_self_attention/multi_head_attention_1/MatrixBandPart/num_upper"], "attr": {"T": {"type": "DT_BOOL"}, "Tindex": {"type": "DT_INT32"}}}, {"name": "StatefulPartitionedCall/model/transformer/encoder/encoder_layer/global_self_attention/multi_head_attention/key/add", "op": "AddV2", "input": ["StatefulPartitionedCall/model/transformer/encoder/encoder_layer/global_self_attention/multi_head_attention/key/einsum/Einsum", "StatefulPartitionedCall/model/transformer/encoder/encoder_layer/global_self_attention/multi_head_attention/key/add/ReadVariableOp"], "attr": {"T": {"type": "DT_FLOAT"}}}, {"name": "StatefulPartitionedCall/model/transformer/encoder/encoder_layer/global_self_attention/multi_head_attention/query/add", "op": "AddV2", "input": ["StatefulPartitionedCall/model/transformer/encoder/encoder_layer/global_self_attention/multi_head_attention/query/einsum/Einsum", "StatefulPartitionedCall/model/transformer/encoder/encoder_layer/global_self_attention/multi_head_attention/query/add/ReadVariableOp"], "attr": {"T": {"type": "DT_FLOAT"}}}, {"name": "StatefulPartitionedCall/model/transformer/encoder/encoder_layer/global_self_attention/multi_head_attention/value/add", "op": "AddV2", "input": ["StatefulPartitionedCall/model/transformer/encoder/encoder_layer/global_self_attention/multi_head_attention/value/einsum/Einsum", "StatefulPartitionedCall/model/transformer/encoder/encoder_layer/global_self_attention/multi_head_attention/value/add/ReadVariableOp"], "attr": {"T": {"type": "DT_FLOAT"}}}, {"name": "StatefulPartitionedCall/model/transformer/decoder/decoder_layer/causal_self_attention/multi_head_attention_1/and_2", "op": "LogicalAnd", "input": ["StatefulPartitionedCall/model/transformer/decoder/decoder_layer/causal_self_attention/multi_head_attention_1/and_1", "StatefulPartitionedCall/model/transformer/decoder/decoder_layer/causal_self_attention/multi_head_attention_1/MatrixBandPart"]}, {"name": "StatefulPartitionedCall/model/transformer/encoder/encoder_layer/global_self_attention/multi_head_attention/Mul", "op": "Mul", "input": ["StatefulPartitionedCall/model/transformer/encoder/encoder_layer/global_self_attention/multi_head_attention/query/add", "StatefulPartitionedCall/model/transformer/encoder/encoder_layer/global_self_attention/multi_head_attention/Mul/y"], "attr": {"T": {"type": "DT_FLOAT"}}}, {"name": "StatefulPartitionedCall/model/transformer/decoder/decoder_layer/causal_self_attention/multi_head_attention_1/ExpandDims", "op": "ExpandDims", "input": ["StatefulPartitionedCall/model/transformer/decoder/decoder_layer/causal_self_attention/multi_head_attention_1/and_2", "StatefulPartitionedCall/model/transformer/decoder/decoder_layer/causal_self_attention/multi_head_attention_1/ExpandDims/dim"], "attr": {"Tdim": {"type": "DT_INT32"}, "T": {"type": "DT_BOOL"}}}, {"name": "StatefulPartitionedCall/model/transformer/encoder/encoder_layer/global_self_attention/multi_head_attention/einsum/Einsum", "op": "Einsum", "input": ["StatefulPartitionedCall/model/transformer/encoder/encoder_layer/global_self_attention/multi_head_attention/key/add", "StatefulPartitionedCall/model/transformer/encoder/encoder_layer/global_self_attention/multi_head_attention/Mul"], "attr": {"T": {"type": "DT_FLOAT"}, "N": {"i": "2"}, "equation": {"s": "YWVjZCxhYmNkLT5hY2Jl"}}}, {"name": "StatefulPartitionedCall/model/transformer/decoder/decoder_layer/causal_self_attention/multi_head_attention_1/softmax_1/Cast", "op": "Cast", "input": ["StatefulPartitionedCall/model/transformer/decoder/decoder_layer/causal_self_attention/multi_head_attention_1/ExpandDims"], "attr": {"Truncate": {"b": false}, "SrcT": {"type": "DT_BOOL"}, "DstT": {"type": "DT_FLOAT"}}}, {"name": "StatefulPartitionedCall/model/transformer/encoder/encoder_layer/global_self_attention/multi_head_attention/softmax/Softmax", "op": "Softmax", "input": ["StatefulPartitionedCall/model/transformer/encoder/encoder_layer/global_self_attention/multi_head_attention/einsum/Einsum"], "attr": {"T": {"type": "DT_FLOAT"}}}, {"name": "StatefulPartitionedCall/model/transformer/decoder/decoder_layer/causal_self_attention/multi_head_attention_1/softmax_1/sub", "op": "Sub", "input": ["StatefulPartitionedCall/model/transformer/decoder/decoder_layer/causal_self_attention/multi_head_attention_1/softmax_1/sub/x", "StatefulPartitionedCall/model/transformer/decoder/decoder_layer/causal_self_attention/multi_head_attention_1/softmax_1/Cast"], "attr": {"T": {"type": "DT_FLOAT"}}}, {"name": "StatefulPartitionedCall/model/transformer/encoder/encoder_layer/global_self_attention/multi_head_attention/einsum_1/Einsum", "op": "Einsum", "input": ["StatefulPartitionedCall/model/transformer/encoder/encoder_layer/global_self_attention/multi_head_attention/softmax/Softmax", "StatefulPartitionedCall/model/transformer/encoder/encoder_layer/global_self_attention/multi_head_attention/value/add"], "attr": {"N": {"i": "2"}, "T": {"type": "DT_FLOAT"}, "equation": {"s": "YWNiZSxhZWNkLT5hYmNk"}}}, {"name": "StatefulPartitionedCall/model/transformer/decoder/decoder_layer/causal_self_attention/multi_head_attention_1/softmax_1/mul", "op": "Mul", "input": ["StatefulPartitionedCall/model/transformer/decoder/decoder_layer/causal_self_attention/multi_head_attention_1/softmax_1/sub", "StatefulPartitionedCall/model/transformer/decoder/decoder_layer/causal_self_attention/multi_head_attention_1/softmax_1/mul/y"], "attr": {"T": {"type": "DT_FLOAT"}}}, {"name": "StatefulPartitionedCall/model/transformer/encoder/encoder_layer/global_self_attention/multi_head_attention/attention_output/einsum/Einsum", "op": "Einsum", "input": ["StatefulPartitionedCall/model/transformer/encoder/encoder_layer/global_self_attention/multi_head_attention/einsum_1/Einsum", "StatefulPartitionedCall/model/transformer/encoder/encoder_layer/global_self_attention/multi_head_attention/attention_output/einsum/Einsum/ReadVariableOp"], "attr": {"N": {"i": "2"}, "equation": {"s": "YWJjZCxjZGUtPmFiZQ=="}, "T": {"type": "DT_FLOAT"}}}, {"name": "StatefulPartitionedCall/model/transformer/decoder/decoder_layer/causal_self_attention/multi_head_attention_1/softmax_1/add", "op": "AddV2", "input": ["StatefulPartitionedCall/model/transformer/decoder/decoder_layer/causal_self_attention/multi_head_attention_1/einsum/Einsum", "StatefulPartitionedCall/model/transformer/decoder/decoder_layer/causal_self_attention/multi_head_attention_1/softmax_1/mul"], "attr": {"T": {"type": "DT_FLOAT"}}}, {"name": "StatefulPartitionedCall/model/transformer/encoder/encoder_layer/global_self_attention/add/ArithmeticOptimizer/AddOpsRewrite_Leaf_1_add", "op": "AddN", "input": ["StatefulPartitionedCall/model/transformer/encoder/positional_embedding/add", "StatefulPartitionedCall/model/transformer/encoder/encoder_layer/global_self_attention/multi_head_attention/attention_output/einsum/Einsum"], "attr": {"_grappler_ArithmeticOptimizer_AddOpsRewriteStage": {"b": true}, "N": {"i": "2"}, "T": {"type": "DT_FLOAT"}}}, {"name": "StatefulPartitionedCall/model/transformer/decoder/decoder_layer/causal_self_attention/multi_head_attention_1/softmax_1/Softmax", "op": "Softmax", "input": ["StatefulPartitionedCall/model/transformer/decoder/decoder_layer/causal_self_attention/multi_head_attention_1/softmax_1/add"], "attr": {"T": {"type": "DT_FLOAT"}}}, {"name": "StatefulPartitionedCall/model/transformer/encoder/encoder_layer/global_self_attention/add/ArithmeticOptimizer/AddOpsRewrite_add", "op": "AddV2", "input": ["StatefulPartitionedCall/model/transformer/encoder/encoder_layer/global_self_attention/multi_head_attention/attention_output/add/ReadVariableOp", "StatefulPartitionedCall/model/transformer/encoder/encoder_layer/global_self_attention/add/ArithmeticOptimizer/AddOpsRewrite_Leaf_1_add"], "attr": {"T": {"type": "DT_FLOAT"}, "_grappler_ArithmeticOptimizer_AddOpsRewriteStage": {"b": true}}}, {"name": "StatefulPartitionedCall/model/transformer/decoder/decoder_layer/causal_self_attention/multi_head_attention_1/einsum_1/Einsum", "op": "Einsum", "input": ["StatefulPartitionedCall/model/transformer/decoder/decoder_layer/causal_self_attention/multi_head_attention_1/softmax_1/Softmax", "StatefulPartitionedCall/model/transformer/decoder/decoder_layer/causal_self_attention/multi_head_attention_1/value/add"], "attr": {"N": {"i": "2"}, "T": {"type": "DT_FLOAT"}, "equation": {"s": "YWNiZSxhZWNkLT5hYmNk"}}}, {"name": "StatefulPartitionedCall/model/transformer/encoder/encoder_layer/global_self_attention/layer_normalization/Shape", "op": "Shape", "input": ["StatefulPartitionedCall/model/transformer/encoder/encoder_layer/global_self_attention/add/ArithmeticOptimizer/AddOpsRewrite_add"], "attr": {"T": {"type": "DT_FLOAT"}, "out_type": {"type": "DT_INT32"}}}, {"name": "StatefulPartitionedCall/model/transformer/decoder/decoder_layer/causal_self_attention/multi_head_attention_1/attention_output/einsum/Einsum", "op": "Einsum", "input": ["StatefulPartitionedCall/model/transformer/decoder/decoder_layer/causal_self_attention/multi_head_attention_1/einsum_1/Einsum", "StatefulPartitionedCall/model/transformer/decoder/decoder_layer/causal_self_attention/multi_head_attention_1/attention_output/einsum/Einsum/ReadVariableOp"], "attr": {"T": {"type": "DT_FLOAT"}, "equation": {"s": "YWJjZCxjZGUtPmFiZQ=="}, "N": {"i": "2"}}}, {"name": "StatefulPartitionedCall/model/transformer/encoder/encoder_layer/global_self_attention/layer_normalization/strided_slice_2", "op": "StridedSlice", "input": ["StatefulPartitionedCall/model/transformer/encoder/encoder_layer/global_self_attention/layer_normalization/Shape", "StatefulPartitionedCall/model/transformer/encoder/encoder_layer/global_self_attention/layer_normalization/strided_slice_2/stack", "StatefulPartitionedCall/model/transformer/encoder/encoder_layer/global_self_attention/layer_normalization/strided_slice_2/stack_1", "StatefulPartitionedCall/model/transformer/encoder/encoder_layer/global_self_attention/layer_normalization/strided_slice_2/stack_2"], "attr": {"begin_mask": {"i": "0"}, "Index": {"type": "DT_INT32"}, "new_axis_mask": {"i": "0"}, "shrink_axis_mask": {"i": "1"}, "end_mask": {"i": "0"}, "T": {"type": "DT_INT32"}, "ellipsis_mask": {"i": "0"}}}, {"name": "StatefulPartitionedCall/model/transformer/encoder/encoder_layer/global_self_attention/layer_normalization/strided_slice", "op": "StridedSlice", "input": ["StatefulPartitionedCall/model/transformer/encoder/encoder_layer/global_self_attention/layer_normalization/Shape", "StatefulPartitionedCall/model/transformer/encoder/encoder_layer/global_self_attention/layer_normalization/strided_slice/stack", "StatefulPartitionedCall/model/transformer/encoder/encoder_layer/global_self_attention/layer_normalization/strided_slice/stack_1", "StatefulPartitionedCall/model/transformer/encoder/encoder_layer/global_self_attention/layer_normalization/strided_slice/stack_2"], "attr": {"T": {"type": "DT_INT32"}, "end_mask": {"i": "0"}, "shrink_axis_mask": {"i": "1"}, "new_axis_mask": {"i": "0"}, "ellipsis_mask": {"i": "0"}, "Index": {"type": "DT_INT32"}, "begin_mask": {"i": "0"}}}, {"name": "StatefulPartitionedCall/model/transformer/encoder/encoder_layer/global_self_attention/layer_normalization/strided_slice_1", "op": "StridedSlice", "input": ["StatefulPartitionedCall/model/transformer/encoder/encoder_layer/global_self_attention/layer_normalization/Shape", "StatefulPartitionedCall/model/transformer/encoder/encoder_layer/global_self_attention/layer_normalization/strided_slice_1/stack", "StatefulPartitionedCall/model/transformer/encoder/encoder_layer/global_self_attention/layer_normalization/strided_slice_1/stack_1", "StatefulPartitionedCall/model/transformer/encoder/encoder_layer/global_self_attention/layer_normalization/strided_slice_1/stack_2"], "attr": {"T": {"type": "DT_INT32"}, "Index": {"type": "DT_INT32"}, "begin_mask": {"i": "0"}, "ellipsis_mask": {"i": "0"}, "new_axis_mask": {"i": "0"}, "end_mask": {"i": "0"}, "shrink_axis_mask": {"i": "1"}}}, {"name": "StatefulPartitionedCall/model/transformer/decoder/decoder_layer/causal_self_attention/multi_head_attention_1/attention_output/add", "op": "AddV2", "input": ["StatefulPartitionedCall/model/transformer/decoder/decoder_layer/causal_self_attention/multi_head_attention_1/attention_output/einsum/Einsum", "StatefulPartitionedCall/model/transformer/decoder/decoder_layer/causal_self_attention/multi_head_attention_1/attention_output/add/ReadVariableOp"], "attr": {"T": {"type": "DT_FLOAT"}}}, {"name": "StatefulPartitionedCall/model/transformer/encoder/encoder_layer/global_self_attention/layer_normalization/mul_1", "op": "Mul", "input": ["StatefulPartitionedCall/model/transformer/encoder/encoder_layer/global_self_attention/layer_normalization/strided_slice", "StatefulPartitionedCall/model/transformer/encoder/encoder_layer/global_self_attention/layer_normalization/strided_slice_1"], "attr": {"T": {"type": "DT_INT32"}}}, {"name": "StatefulPartitionedCall/model/transformer/decoder/decoder_layer/causal_self_attention/add_2/add", "op": "AddV2", "input": ["StatefulPartitionedCall/model/transformer/decoder/positional_embedding_1/add", "StatefulPartitionedCall/model/transformer/decoder/decoder_layer/causal_self_attention/multi_head_attention_1/attention_output/add"], "attr": {"T": {"type": "DT_FLOAT"}}}, {"name": "StatefulPartitionedCall/model/transformer/encoder/encoder_layer/global_self_attention/layer_normalization/Reshape/shape", "op": "Pack", "input": ["StatefulPartitionedCall/model/transformer/encoder/encoder_layer/global_self_attention/layer_normalization/Reshape/shape/0", "StatefulPartitionedCall/model/transformer/encoder/encoder_layer/global_self_attention/layer_normalization/mul_1", "StatefulPartitionedCall/model/transformer/encoder/encoder_layer/global_self_attention/layer_normalization/strided_slice_2", "StatefulPartitionedCall/model/transformer/encoder/encoder_layer/global_self_attention/layer_normalization/Reshape/shape/3"], "attr": {"N": {"i": "4"}, "axis": {"i": "0"}, "T": {"type": "DT_INT32"}}}, {"name": "ConstantFolding/StatefulPartitionedCall/model/transformer/encoder/encoder_layer/global_self_attention/layer_normalization/ones/packed_const_axis", "op": "Const", "input": ["^StatefulPartitionedCall/model/transformer/encoder/encoder_layer/global_self_attention/layer_normalization/mul_1"], "attr": {"dtype": {"type": "DT_INT32"}, "value": {"tensor": {"dtype": "DT_INT32", "tensorShape": {}}}}}, {"name": "ConstantFolding/StatefulPartitionedCall/model/transformer/encoder/encoder_layer/global_self_attention/layer_normalization/zeros/packed_const_axis", "op": "Const", "input": ["^StatefulPartitionedCall/model/transformer/encoder/encoder_layer/global_self_attention/layer_normalization/mul_1"], "attr": {"dtype": {"type": "DT_INT32"}, "value": {"tensor": {"dtype": "DT_INT32", "tensorShape": {}}}}}, {"name": "StatefulPartitionedCall/model/transformer/decoder/decoder_layer/causal_self_attention/layer_normalization_2/Shape", "op": "Shape", "input": ["StatefulPartitionedCall/model/transformer/decoder/decoder_layer/causal_self_attention/add_2/add"], "attr": {"out_type": {"type": "DT_INT32"}, "T": {"type": "DT_FLOAT"}}}, {"name": "StatefulPartitionedCall/model/transformer/encoder/encoder_layer/global_self_attention/layer_normalization/Reshape", "op": "Reshape", "input": ["StatefulPartitionedCall/model/transformer/encoder/encoder_layer/global_self_attention/add/ArithmeticOptimizer/AddOpsRewrite_add", "StatefulPartitionedCall/model/transformer/encoder/encoder_layer/global_self_attention/layer_normalization/Reshape/shape"], "attr": {"Tshape": {"type": "DT_INT32"}, "T": {"type": "DT_FLOAT"}}}, {"name": "StatefulPartitionedCall/model/transformer/encoder/encoder_layer/global_self_attention/layer_normalization/ones/packed", "op": "ExpandDims", "input": ["StatefulPartitionedCall/model/transformer/encoder/encoder_layer/global_self_attention/layer_normalization/mul_1", "ConstantFolding/StatefulPartitionedCall/model/transformer/encoder/encoder_layer/global_self_attention/layer_normalization/ones/packed_const_axis"], "attr": {"Tdim": {"type": "DT_INT32"}, "T": {"type": "DT_INT32"}}}, {"name": "StatefulPartitionedCall/model/transformer/encoder/encoder_layer/global_self_attention/layer_normalization/zeros/packed", "op": "ExpandDims", "input": ["StatefulPartitionedCall/model/transformer/encoder/encoder_layer/global_self_attention/layer_normalization/mul_1", "ConstantFolding/StatefulPartitionedCall/model/transformer/encoder/encoder_layer/global_self_attention/layer_normalization/zeros/packed_const_axis"], "attr": {"Tdim": {"type": "DT_INT32"}, "T": {"type": "DT_INT32"}}}, {"name": "StatefulPartitionedCall/model/transformer/decoder/decoder_layer/causal_self_attention/layer_normalization_2/strided_slice_2", "op": "StridedSlice", "input": ["StatefulPartitionedCall/model/transformer/decoder/decoder_layer/causal_self_attention/layer_normalization_2/Shape", "StatefulPartitionedCall/model/transformer/decoder/decoder_layer/causal_self_attention/layer_normalization_2/strided_slice_2/stack", "StatefulPartitionedCall/model/transformer/decoder/decoder_layer/causal_self_attention/layer_normalization_2/strided_slice_2/stack_1", "StatefulPartitionedCall/model/transformer/decoder/decoder_layer/causal_self_attention/layer_normalization_2/strided_slice_2/stack_2"], "attr": {"T": {"type": "DT_INT32"}, "end_mask": {"i": "0"}, "ellipsis_mask": {"i": "0"}, "shrink_axis_mask": {"i": "1"}, "new_axis_mask": {"i": "0"}, "begin_mask": {"i": "0"}, "Index": {"type": "DT_INT32"}}}, {"name": "StatefulPartitionedCall/model/transformer/decoder/decoder_layer/causal_self_attention/layer_normalization_2/strided_slice", "op": "StridedSlice", "input": ["StatefulPartitionedCall/model/transformer/decoder/decoder_layer/causal_self_attention/layer_normalization_2/Shape", "StatefulPartitionedCall/model/transformer/decoder/decoder_layer/causal_self_attention/layer_normalization_2/strided_slice/stack", "StatefulPartitionedCall/model/transformer/decoder/decoder_layer/causal_self_attention/layer_normalization_2/strided_slice/stack_1", "StatefulPartitionedCall/model/transformer/decoder/decoder_layer/causal_self_attention/layer_normalization_2/strided_slice/stack_2"], "attr": {"shrink_axis_mask": {"i": "1"}, "ellipsis_mask": {"i": "0"}, "begin_mask": {"i": "0"}, "new_axis_mask": {"i": "0"}, "Index": {"type": "DT_INT32"}, "end_mask": {"i": "0"}, "T": {"type": "DT_INT32"}}}, {"name": "StatefulPartitionedCall/model/transformer/decoder/decoder_layer/causal_self_attention/layer_normalization_2/strided_slice_1", "op": "StridedSlice", "input": ["StatefulPartitionedCall/model/transformer/decoder/decoder_layer/causal_self_attention/layer_normalization_2/Shape", "StatefulPartitionedCall/model/transformer/decoder/decoder_layer/causal_self_attention/layer_normalization_2/strided_slice_1/stack", "StatefulPartitionedCall/model/transformer/decoder/decoder_layer/causal_self_attention/layer_normalization_2/strided_slice_1/stack_1", "StatefulPartitionedCall/model/transformer/decoder/decoder_layer/causal_self_attention/layer_normalization_2/strided_slice_1/stack_2"], "attr": {"T": {"type": "DT_INT32"}, "end_mask": {"i": "0"}, "ellipsis_mask": {"i": "0"}, "begin_mask": {"i": "0"}, "shrink_axis_mask": {"i": "1"}, "Index": {"type": "DT_INT32"}, "new_axis_mask": {"i": "0"}}}, {"name": "StatefulPartitionedCall/model/transformer/encoder/encoder_layer/global_self_attention/layer_normalization/ones", "op": "Fill", "input": ["StatefulPartitionedCall/model/transformer/encoder/encoder_layer/global_self_attention/layer_normalization/ones/packed", "StatefulPartitionedCall/model/transformer/encoder/encoder_layer/global_self_attention/layer_normalization/ones/Const"], "attr": {"T": {"type": "DT_FLOAT"}, "index_type": {"type": "DT_INT32"}}}, {"name": "StatefulPartitionedCall/model/transformer/encoder/encoder_layer/global_self_attention/layer_normalization/zeros", "op": "Fill", "input": ["StatefulPartitionedCall/model/transformer/encoder/encoder_layer/global_self_attention/layer_normalization/zeros/packed", "StatefulPartitionedCall/model/transformer/encoder/encoder_layer/global_self_attention/layer_normalization/zeros/Const"], "attr": {"index_type": {"type": "DT_INT32"}, "T": {"type": "DT_FLOAT"}}}, {"name": "StatefulPartitionedCall/model/transformer/decoder/decoder_layer/causal_self_attention/layer_normalization_2/mul_1", "op": "Mul", "input": ["StatefulPartitionedCall/model/transformer/decoder/decoder_layer/causal_self_attention/layer_normalization_2/strided_slice", "StatefulPartitionedCall/model/transformer/decoder/decoder_layer/causal_self_attention/layer_normalization_2/strided_slice_1"], "attr": {"T": {"type": "DT_INT32"}}}, {"name": "StatefulPartitionedCall/model/transformer/encoder/encoder_layer/global_self_attention/layer_normalization/FusedBatchNormV3", "op": "FusedBatchNormV3", "input": ["StatefulPartitionedCall/model/transformer/encoder/encoder_layer/global_self_attention/layer_normalization/Reshape", "StatefulPartitionedCall/model/transformer/encoder/encoder_layer/global_self_attention/layer_normalization/ones", "StatefulPartitionedCall/model/transformer/encoder/encoder_layer/global_self_attention/layer_normalization/zeros", "StatefulPartitionedCall/model/transformer/encoder/encoder_layer/global_self_attention/layer_normalization/Const", "StatefulPartitionedCall/model/transformer/encoder/encoder_layer/global_self_attention/layer_normalization/Const_1"], "attr": {"U": {"type": "DT_FLOAT"}, "data_format": {"s": "TkNIVw=="}, "epsilon": {"f": 0.001}, "T": {"type": "DT_FLOAT"}, "is_training": {"b": true}, "exponential_avg_factor": {"f": 1.0}}}, {"name": "StatefulPartitionedCall/model/transformer/decoder/decoder_layer/causal_self_attention/layer_normalization_2/Reshape/shape", "op": "Pack", "input": ["StatefulPartitionedCall/model/transformer/decoder/decoder_layer/causal_self_attention/layer_normalization_2/Reshape/shape/0", "StatefulPartitionedCall/model/transformer/decoder/decoder_layer/causal_self_attention/layer_normalization_2/mul_1", "StatefulPartitionedCall/model/transformer/decoder/decoder_layer/causal_self_attention/layer_normalization_2/strided_slice_2", "StatefulPartitionedCall/model/transformer/decoder/decoder_layer/causal_self_attention/layer_normalization_2/Reshape/shape/3"], "attr": {"N": {"i": "4"}, "axis": {"i": "0"}, "T": {"type": "DT_INT32"}}}, {"name": "ConstantFolding/StatefulPartitionedCall/model/transformer/decoder/decoder_layer/causal_self_attention/layer_normalization_2/ones/packed_const_axis", "op": "Const", "input": ["^StatefulPartitionedCall/model/transformer/decoder/decoder_layer/causal_self_attention/layer_normalization_2/mul_1"], "attr": {"dtype": {"type": "DT_INT32"}, "value": {"tensor": {"dtype": "DT_INT32", "tensorShape": {}}}}}, {"name": "ConstantFolding/StatefulPartitionedCall/model/transformer/decoder/decoder_layer/causal_self_attention/layer_normalization_2/zeros/packed_const_axis", "op": "Const", "input": ["^StatefulPartitionedCall/model/transformer/decoder/decoder_layer/causal_self_attention/layer_normalization_2/mul_1"], "attr": {"dtype": {"type": "DT_INT32"}, "value": {"tensor": {"dtype": "DT_INT32", "tensorShape": {}}}}}, {"name": "StatefulPartitionedCall/model/transformer/encoder/encoder_layer/global_self_attention/layer_normalization/Reshape_1", "op": "Reshape", "input": ["StatefulPartitionedCall/model/transformer/encoder/encoder_layer/global_self_attention/layer_normalization/FusedBatchNormV3", "StatefulPartitionedCall/model/transformer/encoder/encoder_layer/global_self_attention/layer_normalization/Shape"], "attr": {"T": {"type": "DT_FLOAT"}, "Tshape": {"type": "DT_INT32"}}}, {"name": "StatefulPartitionedCall/model/transformer/decoder/decoder_layer/causal_self_attention/layer_normalization_2/Reshape", "op": "Reshape", "input": ["StatefulPartitionedCall/model/transformer/decoder/decoder_layer/causal_self_attention/add_2/add", "StatefulPartitionedCall/model/transformer/decoder/decoder_layer/causal_self_attention/layer_normalization_2/Reshape/shape"], "attr": {"Tshape": {"type": "DT_INT32"}, "T": {"type": "DT_FLOAT"}}}, {"name": "StatefulPartitionedCall/model/transformer/decoder/decoder_layer/causal_self_attention/layer_normalization_2/ones/packed", "op": "ExpandDims", "input": ["StatefulPartitionedCall/model/transformer/decoder/decoder_layer/causal_self_attention/layer_normalization_2/mul_1", "ConstantFolding/StatefulPartitionedCall/model/transformer/decoder/decoder_layer/causal_self_attention/layer_normalization_2/ones/packed_const_axis"], "attr": {"T": {"type": "DT_INT32"}, "Tdim": {"type": "DT_INT32"}}}, {"name": "StatefulPartitionedCall/model/transformer/decoder/decoder_layer/causal_self_attention/layer_normalization_2/zeros/packed", "op": "ExpandDims", "input": ["StatefulPartitionedCall/model/transformer/decoder/decoder_layer/causal_self_attention/layer_normalization_2/mul_1", "ConstantFolding/StatefulPartitionedCall/model/transformer/decoder/decoder_layer/causal_self_attention/layer_normalization_2/zeros/packed_const_axis"], "attr": {"T": {"type": "DT_INT32"}, "Tdim": {"type": "DT_INT32"}}}, {"name": "StatefulPartitionedCall/model/transformer/encoder/encoder_layer/global_self_attention/layer_normalization/mul_3", "op": "Mul", "input": ["StatefulPartitionedCall/model/transformer/encoder/encoder_layer/global_self_attention/layer_normalization/Reshape_1", "StatefulPartitionedCall/model/transformer/encoder/encoder_layer/global_self_attention/layer_normalization/mul_3/ReadVariableOp"], "attr": {"T": {"type": "DT_FLOAT"}}}, {"name": "StatefulPartitionedCall/model/transformer/decoder/decoder_layer/causal_self_attention/layer_normalization_2/ones", "op": "Fill", "input": ["StatefulPartitionedCall/model/transformer/decoder/decoder_layer/causal_self_attention/layer_normalization_2/ones/packed", "StatefulPartitionedCall/model/transformer/decoder/decoder_layer/causal_self_attention/layer_normalization_2/ones/Const"], "attr": {"T": {"type": "DT_FLOAT"}, "index_type": {"type": "DT_INT32"}}}, {"name": "StatefulPartitionedCall/model/transformer/decoder/decoder_layer/causal_self_attention/layer_normalization_2/zeros", "op": "Fill", "input": ["StatefulPartitionedCall/model/transformer/decoder/decoder_layer/causal_self_attention/layer_normalization_2/zeros/packed", "StatefulPartitionedCall/model/transformer/decoder/decoder_layer/causal_self_attention/layer_normalization_2/zeros/Const"], "attr": {"index_type": {"type": "DT_INT32"}, "T": {"type": "DT_FLOAT"}}}, {"name": "StatefulPartitionedCall/model/transformer/encoder/encoder_layer/global_self_attention/layer_normalization/add", "op": "AddV2", "input": ["StatefulPartitionedCall/model/transformer/encoder/encoder_layer/global_self_attention/layer_normalization/mul_3", "StatefulPartitionedCall/model/transformer/encoder/encoder_layer/global_self_attention/layer_normalization/add/ReadVariableOp"], "attr": {"T": {"type": "DT_FLOAT"}}}, {"name": "StatefulPartitionedCall/model/transformer/decoder/decoder_layer/causal_self_attention/layer_normalization_2/FusedBatchNormV3", "op": "FusedBatchNormV3", "input": ["StatefulPartitionedCall/model/transformer/decoder/decoder_layer/causal_self_attention/layer_normalization_2/Reshape", "StatefulPartitionedCall/model/transformer/decoder/decoder_layer/causal_self_attention/layer_normalization_2/ones", "StatefulPartitionedCall/model/transformer/decoder/decoder_layer/causal_self_attention/layer_normalization_2/zeros", "StatefulPartitionedCall/model/transformer/decoder/decoder_layer/causal_self_attention/layer_normalization_2/Const", "StatefulPartitionedCall/model/transformer/decoder/decoder_layer/causal_self_attention/layer_normalization_2/Const_1"], "attr": {"epsilon": {"f": 0.001}, "T": {"type": "DT_FLOAT"}, "U": {"type": "DT_FLOAT"}, "data_format": {"s": "TkNIVw=="}, "exponential_avg_factor": {"f": 1.0}, "is_training": {"b": true}}}, {"name": "StatefulPartitionedCall/model/transformer/encoder/encoder_layer/feed_forward/sequential/dense_1/Tensordot/Shape", "op": "Shape", "input": ["StatefulPartitionedCall/model/transformer/encoder/encoder_layer/global_self_attention/layer_normalization/add"], "attr": {"out_type": {"type": "DT_INT32"}, "T": {"type": "DT_FLOAT"}}}, {"name": "StatefulPartitionedCall/model/transformer/decoder/decoder_layer/causal_self_attention/layer_normalization_2/Reshape_1", "op": "Reshape", "input": ["StatefulPartitionedCall/model/transformer/decoder/decoder_layer/causal_self_attention/layer_normalization_2/FusedBatchNormV3", "StatefulPartitionedCall/model/transformer/decoder/decoder_layer/causal_self_attention/layer_normalization_2/Shape"], "attr": {"Tshape": {"type": "DT_INT32"}, "T": {"type": "DT_FLOAT"}}}, {"name": "StatefulPartitionedCall/model/transformer/encoder/encoder_layer/feed_forward/sequential/dense_1/Tensordot/GatherV2_1", "op": "GatherV2", "input": ["StatefulPartitionedCall/model/transformer/encoder/encoder_layer/feed_forward/sequential/dense_1/Tensordot/Shape", "StatefulPartitionedCall/model/transformer/encoder/encoder_layer/feed_forward/sequential/dense_1/Tensordot/axes", "StatefulPartitionedCall/model/transformer/encoder/encoder_layer/feed_forward/sequential/dense_1/Tensordot/GatherV2_1/axis"], "attr": {"batch_dims": {"i": "0"}, "Tparams": {"type": "DT_INT32"}, "Tindices": {"type": "DT_INT32"}, "Taxis": {"type": "DT_INT32"}}}, {"name": "StatefulPartitionedCall/model/transformer/encoder/encoder_layer/feed_forward/sequential/dense_1/Tensordot/GatherV2", "op": "GatherV2", "input": ["StatefulPartitionedCall/model/transformer/encoder/encoder_layer/feed_forward/sequential/dense_1/Tensordot/Shape", "StatefulPartitionedCall/model/transformer/encoder/encoder_layer/feed_forward/sequential/dense_1/Tensordot/free", "StatefulPartitionedCall/model/transformer/encoder/encoder_layer/feed_forward/sequential/dense_1/Tensordot/GatherV2/axis"], "attr": {"Tindices": {"type": "DT_INT32"}, "Tparams": {"type": "DT_INT32"}, "Taxis": {"type": "DT_INT32"}, "batch_dims": {"i": "0"}}}, {"name": "StatefulPartitionedCall/model/transformer/decoder/decoder_layer/causal_self_attention/layer_normalization_2/mul_3", "op": "Mul", "input": ["StatefulPartitionedCall/model/transformer/decoder/decoder_layer/causal_self_attention/layer_normalization_2/Reshape_1", "StatefulPartitionedCall/model/transformer/decoder/decoder_layer/causal_self_attention/layer_normalization_2/mul_3/ReadVariableOp"], "attr": {"T": {"type": "DT_FLOAT"}}}, {"name": "StatefulPartitionedCall/model/transformer/encoder/encoder_layer/feed_forward/sequential/dense_1/Tensordot/Prod_1", "op": "Prod", "input": ["StatefulPartitionedCall/model/transformer/encoder/encoder_layer/feed_forward/sequential/dense_1/Tensordot/GatherV2_1", "StatefulPartitionedCall/model/transformer/encoder/encoder_layer/feed_forward/sequential/dense_1/Tensordot/Const_1"], "attr": {"Tidx": {"type": "DT_INT32"}, "T": {"type": "DT_INT32"}, "keep_dims": {"b": false}}}, {"name": "StatefulPartitionedCall/model/transformer/encoder/encoder_layer/feed_forward/sequential/dense_1/Tensordot/Prod", "op": "Prod", "input": ["StatefulPartitionedCall/model/transformer/encoder/encoder_layer/feed_forward/sequential/dense_1/Tensordot/GatherV2", "StatefulPartitionedCall/model/transformer/encoder/encoder_layer/feed_forward/sequential/dense_1/Tensordot/Const"], "attr": {"keep_dims": {"b": false}, "Tidx": {"type": "DT_INT32"}, "T": {"type": "DT_INT32"}}}, {"name": "StatefulPartitionedCall/model/transformer/encoder/encoder_layer/feed_forward/sequential/dense_1/Tensordot/concat_1", "op": "ConcatV2", "input": ["StatefulPartitionedCall/model/transformer/encoder/encoder_layer/feed_forward/sequential/dense_1/Tensordot/GatherV2", "StatefulPartitionedCall/model/transformer/encoder/encoder_layer/feed_forward/sequential/dense_1/Tensordot/Const_2", "StatefulPartitionedCall/model/transformer/encoder/encoder_layer/feed_forward/sequential/dense_1/Tensordot/concat_1/axis"], "attr": {"T": {"type": "DT_INT32"}, "N": {"i": "2"}, "Tidx": {"type": "DT_INT32"}}}, {"name": "StatefulPartitionedCall/model/transformer/decoder/decoder_layer/causal_self_attention/layer_normalization_2/add", "op": "AddV2", "input": ["StatefulPartitionedCall/model/transformer/decoder/decoder_layer/causal_self_attention/layer_normalization_2/mul_3", "StatefulPartitionedCall/model/transformer/decoder/decoder_layer/causal_self_attention/layer_normalization_2/add/ReadVariableOp"], "attr": {"T": {"type": "DT_FLOAT"}}}, {"name": "StatefulPartitionedCall/model/transformer/encoder/encoder_layer/feed_forward/sequential/dense_1/Tensordot/stack", "op": "Pack", "input": ["StatefulPartitionedCall/model/transformer/encoder/encoder_layer/feed_forward/sequential/dense_1/Tensordot/Prod", "StatefulPartitionedCall/model/transformer/encoder/encoder_layer/feed_forward/sequential/dense_1/Tensordot/Prod_1"], "attr": {"N": {"i": "2"}, "axis": {"i": "0"}, "T": {"type": "DT_INT32"}}}, {"name": "StatefulPartitionedCall/model/transformer/decoder/decoder_layer/cross_attention/multi_head_attention_2/query/einsum/Einsum", "op": "Einsum", "input": ["StatefulPartitionedCall/model/transformer/decoder/decoder_layer/causal_self_attention/layer_normalization_2/add", "StatefulPartitionedCall/model/transformer/decoder/decoder_layer/cross_attention/multi_head_attention_2/query/einsum/Einsum/ReadVariableOp"], "attr": {"equation": {"s": "YWJjLGNkZS0+YWJkZQ=="}, "T": {"type": "DT_FLOAT"}, "N": {"i": "2"}}}, {"name": "StatefulPartitionedCall/model/transformer/encoder/encoder_layer/feed_forward/sequential/dense_1/Tensordot/Reshape", "op": "Reshape", "input": ["StatefulPartitionedCall/model/transformer/encoder/encoder_layer/global_self_attention/layer_normalization/add", "StatefulPartitionedCall/model/transformer/encoder/encoder_layer/feed_forward/sequential/dense_1/Tensordot/stack"], "attr": {"Tshape": {"type": "DT_INT32"}, "T": {"type": "DT_FLOAT"}}}, {"name": "StatefulPartitionedCall/model/transformer/decoder/decoder_layer/cross_attention/multi_head_attention_2/query/add", "op": "AddV2", "input": ["StatefulPartitionedCall/model/transformer/decoder/decoder_layer/cross_attention/multi_head_attention_2/query/einsum/Einsum", "StatefulPartitionedCall/model/transformer/decoder/decoder_layer/cross_attention/multi_head_attention_2/query/add/ReadVariableOp"], "attr": {"T": {"type": "DT_FLOAT"}}}, {"name": "StatefulPartitionedCall/model/transformer/encoder/encoder_layer/feed_forward/sequential/dense_1/Tensordot/MatMul", "op": "MatMul", "input": ["StatefulPartitionedCall/model/transformer/encoder/encoder_layer/feed_forward/sequential/dense_1/Tensordot/Reshape", "StatefulPartitionedCall/model/transformer/encoder/encoder_layer/feed_forward/sequential/dense_1/Tensordot/ReadVariableOp"], "device": "/device:CPU:0", "attr": {"T": {"type": "DT_FLOAT"}, "transpose_b": {"b": false}, "transpose_a": {"b": false}}}, {"name": "StatefulPartitionedCall/model/transformer/decoder/decoder_layer/cross_attention/multi_head_attention_2/Mul", "op": "Mul", "input": ["StatefulPartitionedCall/model/transformer/decoder/decoder_layer/cross_attention/multi_head_attention_2/query/add", "StatefulPartitionedCall/model/transformer/decoder/decoder_layer/cross_attention/multi_head_attention_2/Mul/y"], "attr": {"T": {"type": "DT_FLOAT"}}}, {"name": "StatefulPartitionedCall/model/transformer/encoder/encoder_layer/feed_forward/sequential/dense_1/Tensordot", "op": "Reshape", "input": ["StatefulPartitionedCall/model/transformer/encoder/encoder_layer/feed_forward/sequential/dense_1/Tensordot/MatMul", "StatefulPartitionedCall/model/transformer/encoder/encoder_layer/feed_forward/sequential/dense_1/Tensordot/concat_1"], "attr": {"T": {"type": "DT_FLOAT"}, "Tshape": {"type": "DT_INT32"}}}, {"name": "StatefulPartitionedCall/model/transformer/encoder/encoder_layer/feed_forward/sequential/dense_1/BiasAdd", "op": "BiasAdd", "input": ["StatefulPartitionedCall/model/transformer/encoder/encoder_layer/feed_forward/sequential/dense_1/Tensordot", "StatefulPartitionedCall/model/transformer/encoder/encoder_layer/feed_forward/sequential/dense_1/BiasAdd/ReadVariableOp"], "attr": {"T": {"type": "DT_FLOAT"}, "data_format": {"s": "TkhXQw=="}}}, {"name": "StatefulPartitionedCall/model/transformer/encoder/encoder_layer/feed_forward/sequential/dense_1/Relu", "op": "Relu", "input": ["StatefulPartitionedCall/model/transformer/encoder/encoder_layer/feed_forward/sequential/dense_1/BiasAdd"], "attr": {"T": {"type": "DT_FLOAT"}}}, {"name": "StatefulPartitionedCall/model/transformer/encoder/encoder_layer/feed_forward/sequential/dense_2/Tensordot/Shape", "op": "Shape", "input": ["StatefulPartitionedCall/model/transformer/encoder/encoder_layer/feed_forward/sequential/dense_1/Relu"], "attr": {"T": {"type": "DT_FLOAT"}, "out_type": {"type": "DT_INT32"}}}, {"name": "StatefulPartitionedCall/model/transformer/encoder/encoder_layer/feed_forward/sequential/dense_2/Tensordot/GatherV2_1", "op": "GatherV2", "input": ["StatefulPartitionedCall/model/transformer/encoder/encoder_layer/feed_forward/sequential/dense_2/Tensordot/Shape", "StatefulPartitionedCall/model/transformer/encoder/encoder_layer/feed_forward/sequential/dense_2/Tensordot/axes", "StatefulPartitionedCall/model/transformer/encoder/encoder_layer/feed_forward/sequential/dense_2/Tensordot/GatherV2_1/axis"], "attr": {"batch_dims": {"i": "0"}, "Taxis": {"type": "DT_INT32"}, "Tindices": {"type": "DT_INT32"}, "Tparams": {"type": "DT_INT32"}}}, {"name": "StatefulPartitionedCall/model/transformer/encoder/encoder_layer/feed_forward/sequential/dense_2/Tensordot/GatherV2", "op": "GatherV2", "input": ["StatefulPartitionedCall/model/transformer/encoder/encoder_layer/feed_forward/sequential/dense_2/Tensordot/Shape", "StatefulPartitionedCall/model/transformer/encoder/encoder_layer/feed_forward/sequential/dense_2/Tensordot/free", "StatefulPartitionedCall/model/transformer/encoder/encoder_layer/feed_forward/sequential/dense_2/Tensordot/GatherV2/axis"], "attr": {"Tindices": {"type": "DT_INT32"}, "Taxis": {"type": "DT_INT32"}, "batch_dims": {"i": "0"}, "Tparams": {"type": "DT_INT32"}}}, {"name": "StatefulPartitionedCall/model/transformer/encoder/encoder_layer/feed_forward/sequential/dense_2/Tensordot/Prod_1", "op": "Prod", "input": ["StatefulPartitionedCall/model/transformer/encoder/encoder_layer/feed_forward/sequential/dense_2/Tensordot/GatherV2_1", "StatefulPartitionedCall/model/transformer/encoder/encoder_layer/feed_forward/sequential/dense_2/Tensordot/Const_1"], "attr": {"keep_dims": {"b": false}, "Tidx": {"type": "DT_INT32"}, "T": {"type": "DT_INT32"}}}, {"name": "StatefulPartitionedCall/model/transformer/encoder/encoder_layer/feed_forward/sequential/dense_2/Tensordot/Prod", "op": "Prod", "input": ["StatefulPartitionedCall/model/transformer/encoder/encoder_layer/feed_forward/sequential/dense_2/Tensordot/GatherV2", "StatefulPartitionedCall/model/transformer/encoder/encoder_layer/feed_forward/sequential/dense_2/Tensordot/Const"], "attr": {"Tidx": {"type": "DT_INT32"}, "T": {"type": "DT_INT32"}, "keep_dims": {"b": false}}}, {"name": "StatefulPartitionedCall/model/transformer/encoder/encoder_layer/feed_forward/sequential/dense_2/Tensordot/concat_1", "op": "ConcatV2", "input": ["StatefulPartitionedCall/model/transformer/encoder/encoder_layer/feed_forward/sequential/dense_2/Tensordot/GatherV2", "StatefulPartitionedCall/model/transformer/encoder/encoder_layer/feed_forward/sequential/dense_2/Tensordot/Const_2", "StatefulPartitionedCall/model/transformer/encoder/encoder_layer/feed_forward/sequential/dense_2/Tensordot/concat_1/axis"], "attr": {"N": {"i": "2"}, "Tidx": {"type": "DT_INT32"}, "T": {"type": "DT_INT32"}}}, {"name": "StatefulPartitionedCall/model/transformer/encoder/encoder_layer/feed_forward/sequential/dense_2/Tensordot/stack", "op": "Pack", "input": ["StatefulPartitionedCall/model/transformer/encoder/encoder_layer/feed_forward/sequential/dense_2/Tensordot/Prod", "StatefulPartitionedCall/model/transformer/encoder/encoder_layer/feed_forward/sequential/dense_2/Tensordot/Prod_1"], "attr": {"axis": {"i": "0"}, "T": {"type": "DT_INT32"}, "N": {"i": "2"}}}, {"name": "StatefulPartitionedCall/model/transformer/encoder/encoder_layer/feed_forward/sequential/dense_2/Tensordot/Reshape", "op": "Reshape", "input": ["StatefulPartitionedCall/model/transformer/encoder/encoder_layer/feed_forward/sequential/dense_1/Relu", "StatefulPartitionedCall/model/transformer/encoder/encoder_layer/feed_forward/sequential/dense_2/Tensordot/stack"], "attr": {"Tshape": {"type": "DT_INT32"}, "T": {"type": "DT_FLOAT"}}}, {"name": "StatefulPartitionedCall/model/transformer/encoder/encoder_layer/feed_forward/sequential/dense_2/Tensordot/MatMul", "op": "MatMul", "input": ["StatefulPartitionedCall/model/transformer/encoder/encoder_layer/feed_forward/sequential/dense_2/Tensordot/Reshape", "StatefulPartitionedCall/model/transformer/encoder/encoder_layer/feed_forward/sequential/dense_2/Tensordot/ReadVariableOp"], "device": "/device:CPU:0", "attr": {"transpose_a": {"b": false}, "transpose_b": {"b": false}, "T": {"type": "DT_FLOAT"}}}, {"name": "StatefulPartitionedCall/model/transformer/encoder/encoder_layer/feed_forward/sequential/dense_2/Tensordot", "op": "Reshape", "input": ["StatefulPartitionedCall/model/transformer/encoder/encoder_layer/feed_forward/sequential/dense_2/Tensordot/MatMul", "StatefulPartitionedCall/model/transformer/encoder/encoder_layer/feed_forward/sequential/dense_2/Tensordot/concat_1"], "attr": {"Tshape": {"type": "DT_INT32"}, "T": {"type": "DT_FLOAT"}}}, {"name": "StatefulPartitionedCall/model/transformer/encoder/encoder_layer/feed_forward/sequential/dense_2/BiasAdd", "op": "BiasAdd", "input": ["StatefulPartitionedCall/model/transformer/encoder/encoder_layer/feed_forward/sequential/dense_2/Tensordot", "StatefulPartitionedCall/model/transformer/encoder/encoder_layer/feed_forward/sequential/dense_2/BiasAdd/ReadVariableOp"], "attr": {"data_format": {"s": "TkhXQw=="}, "T": {"type": "DT_FLOAT"}}}, {"name": "StatefulPartitionedCall/model/transformer/encoder/encoder_layer/feed_forward/add_1/add", "op": "AddV2", "input": ["StatefulPartitionedCall/model/transformer/encoder/encoder_layer/global_self_attention/layer_normalization/add", "StatefulPartitionedCall/model/transformer/encoder/encoder_layer/feed_forward/sequential/dense_2/BiasAdd"], "attr": {"T": {"type": "DT_FLOAT"}}}, {"name": "StatefulPartitionedCall/model/transformer/encoder/encoder_layer/feed_forward/layer_normalization_1/Shape", "op": "Shape", "input": ["StatefulPartitionedCall/model/transformer/encoder/encoder_layer/feed_forward/add_1/add"], "attr": {"T": {"type": "DT_FLOAT"}, "out_type": {"type": "DT_INT32"}}}, {"name": "StatefulPartitionedCall/model/transformer/encoder/encoder_layer/feed_forward/layer_normalization_1/strided_slice_2", "op": "StridedSlice", "input": ["StatefulPartitionedCall/model/transformer/encoder/encoder_layer/feed_forward/layer_normalization_1/Shape", "StatefulPartitionedCall/model/transformer/encoder/encoder_layer/feed_forward/layer_normalization_1/strided_slice_2/stack", "StatefulPartitionedCall/model/transformer/encoder/encoder_layer/feed_forward/layer_normalization_1/strided_slice_2/stack_1", "StatefulPartitionedCall/model/transformer/encoder/encoder_layer/feed_forward/layer_normalization_1/strided_slice_2/stack_2"], "attr": {"end_mask": {"i": "0"}, "T": {"type": "DT_INT32"}, "Index": {"type": "DT_INT32"}, "new_axis_mask": {"i": "0"}, "shrink_axis_mask": {"i": "1"}, "begin_mask": {"i": "0"}, "ellipsis_mask": {"i": "0"}}}, {"name": "StatefulPartitionedCall/model/transformer/encoder/encoder_layer/feed_forward/layer_normalization_1/strided_slice", "op": "StridedSlice", "input": ["StatefulPartitionedCall/model/transformer/encoder/encoder_layer/feed_forward/layer_normalization_1/Shape", "StatefulPartitionedCall/model/transformer/encoder/encoder_layer/feed_forward/layer_normalization_1/strided_slice/stack", "StatefulPartitionedCall/model/transformer/encoder/encoder_layer/feed_forward/layer_normalization_1/strided_slice/stack_1", "StatefulPartitionedCall/model/transformer/encoder/encoder_layer/feed_forward/layer_normalization_1/strided_slice/stack_2"], "attr": {"begin_mask": {"i": "0"}, "end_mask": {"i": "0"}, "new_axis_mask": {"i": "0"}, "T": {"type": "DT_INT32"}, "Index": {"type": "DT_INT32"}, "shrink_axis_mask": {"i": "1"}, "ellipsis_mask": {"i": "0"}}}, {"name": "StatefulPartitionedCall/model/transformer/encoder/encoder_layer/feed_forward/layer_normalization_1/strided_slice_1", "op": "StridedSlice", "input": ["StatefulPartitionedCall/model/transformer/encoder/encoder_layer/feed_forward/layer_normalization_1/Shape", "StatefulPartitionedCall/model/transformer/encoder/encoder_layer/feed_forward/layer_normalization_1/strided_slice_1/stack", "StatefulPartitionedCall/model/transformer/encoder/encoder_layer/feed_forward/layer_normalization_1/strided_slice_1/stack_1", "StatefulPartitionedCall/model/transformer/encoder/encoder_layer/feed_forward/layer_normalization_1/strided_slice_1/stack_2"], "attr": {"shrink_axis_mask": {"i": "1"}, "ellipsis_mask": {"i": "0"}, "begin_mask": {"i": "0"}, "end_mask": {"i": "0"}, "new_axis_mask": {"i": "0"}, "T": {"type": "DT_INT32"}, "Index": {"type": "DT_INT32"}}}, {"name": "StatefulPartitionedCall/model/transformer/encoder/encoder_layer/feed_forward/layer_normalization_1/mul_1", "op": "Mul", "input": ["StatefulPartitionedCall/model/transformer/encoder/encoder_layer/feed_forward/layer_normalization_1/strided_slice", "StatefulPartitionedCall/model/transformer/encoder/encoder_layer/feed_forward/layer_normalization_1/strided_slice_1"], "attr": {"T": {"type": "DT_INT32"}}}, {"name": "StatefulPartitionedCall/model/transformer/encoder/encoder_layer/feed_forward/layer_normalization_1/Reshape/shape", "op": "Pack", "input": ["StatefulPartitionedCall/model/transformer/encoder/encoder_layer/feed_forward/layer_normalization_1/Reshape/shape/0", "StatefulPartitionedCall/model/transformer/encoder/encoder_layer/feed_forward/layer_normalization_1/mul_1", "StatefulPartitionedCall/model/transformer/encoder/encoder_layer/feed_forward/layer_normalization_1/strided_slice_2", "StatefulPartitionedCall/model/transformer/encoder/encoder_layer/feed_forward/layer_normalization_1/Reshape/shape/3"], "attr": {"axis": {"i": "0"}, "T": {"type": "DT_INT32"}, "N": {"i": "4"}}}, {"name": "ConstantFolding/StatefulPartitionedCall/model/transformer/encoder/encoder_layer/feed_forward/layer_normalization_1/ones/packed_const_axis", "op": "Const", "input": ["^StatefulPartitionedCall/model/transformer/encoder/encoder_layer/feed_forward/layer_normalization_1/mul_1"], "attr": {"dtype": {"type": "DT_INT32"}, "value": {"tensor": {"dtype": "DT_INT32", "tensorShape": {}}}}}, {"name": "ConstantFolding/StatefulPartitionedCall/model/transformer/encoder/encoder_layer/feed_forward/layer_normalization_1/zeros/packed_const_axis", "op": "Const", "input": ["^StatefulPartitionedCall/model/transformer/encoder/encoder_layer/feed_forward/layer_normalization_1/mul_1"], "attr": {"dtype": {"type": "DT_INT32"}, "value": {"tensor": {"dtype": "DT_INT32", "tensorShape": {}}}}}, {"name": "StatefulPartitionedCall/model/transformer/encoder/encoder_layer/feed_forward/layer_normalization_1/Reshape", "op": "Reshape", "input": ["StatefulPartitionedCall/model/transformer/encoder/encoder_layer/feed_forward/add_1/add", "StatefulPartitionedCall/model/transformer/encoder/encoder_layer/feed_forward/layer_normalization_1/Reshape/shape"], "attr": {"T": {"type": "DT_FLOAT"}, "Tshape": {"type": "DT_INT32"}}}, {"name": "StatefulPartitionedCall/model/transformer/encoder/encoder_layer/feed_forward/layer_normalization_1/ones/packed", "op": "ExpandDims", "input": ["StatefulPartitionedCall/model/transformer/encoder/encoder_layer/feed_forward/layer_normalization_1/mul_1", "ConstantFolding/StatefulPartitionedCall/model/transformer/encoder/encoder_layer/feed_forward/layer_normalization_1/ones/packed_const_axis"], "attr": {"Tdim": {"type": "DT_INT32"}, "T": {"type": "DT_INT32"}}}, {"name": "StatefulPartitionedCall/model/transformer/encoder/encoder_layer/feed_forward/layer_normalization_1/zeros/packed", "op": "ExpandDims", "input": ["StatefulPartitionedCall/model/transformer/encoder/encoder_layer/feed_forward/layer_normalization_1/mul_1", "ConstantFolding/StatefulPartitionedCall/model/transformer/encoder/encoder_layer/feed_forward/layer_normalization_1/zeros/packed_const_axis"], "attr": {"T": {"type": "DT_INT32"}, "Tdim": {"type": "DT_INT32"}}}, {"name": "StatefulPartitionedCall/model/transformer/encoder/encoder_layer/feed_forward/layer_normalization_1/ones", "op": "Fill", "input": ["StatefulPartitionedCall/model/transformer/encoder/encoder_layer/feed_forward/layer_normalization_1/ones/packed", "StatefulPartitionedCall/model/transformer/encoder/encoder_layer/feed_forward/layer_normalization_1/ones/Const"], "attr": {"index_type": {"type": "DT_INT32"}, "T": {"type": "DT_FLOAT"}}}, {"name": "StatefulPartitionedCall/model/transformer/encoder/encoder_layer/feed_forward/layer_normalization_1/zeros", "op": "Fill", "input": ["StatefulPartitionedCall/model/transformer/encoder/encoder_layer/feed_forward/layer_normalization_1/zeros/packed", "StatefulPartitionedCall/model/transformer/encoder/encoder_layer/feed_forward/layer_normalization_1/zeros/Const"], "attr": {"T": {"type": "DT_FLOAT"}, "index_type": {"type": "DT_INT32"}}}, {"name": "StatefulPartitionedCall/model/transformer/encoder/encoder_layer/feed_forward/layer_normalization_1/FusedBatchNormV3", "op": "FusedBatchNormV3", "input": ["StatefulPartitionedCall/model/transformer/encoder/encoder_layer/feed_forward/layer_normalization_1/Reshape", "StatefulPartitionedCall/model/transformer/encoder/encoder_layer/feed_forward/layer_normalization_1/ones", "StatefulPartitionedCall/model/transformer/encoder/encoder_layer/feed_forward/layer_normalization_1/zeros", "StatefulPartitionedCall/model/transformer/encoder/encoder_layer/feed_forward/layer_normalization_1/Const", "StatefulPartitionedCall/model/transformer/encoder/encoder_layer/feed_forward/layer_normalization_1/Const_1"], "attr": {"epsilon": {"f": 0.001}, "U": {"type": "DT_FLOAT"}, "is_training": {"b": true}, "exponential_avg_factor": {"f": 1.0}, "data_format": {"s": "TkNIVw=="}, "T": {"type": "DT_FLOAT"}}}, {"name": "StatefulPartitionedCall/model/transformer/encoder/encoder_layer/feed_forward/layer_normalization_1/Reshape_1", "op": "Reshape", "input": ["StatefulPartitionedCall/model/transformer/encoder/encoder_layer/feed_forward/layer_normalization_1/FusedBatchNormV3", "StatefulPartitionedCall/model/transformer/encoder/encoder_layer/feed_forward/layer_normalization_1/Shape"], "attr": {"T": {"type": "DT_FLOAT"}, "Tshape": {"type": "DT_INT32"}}}, {"name": "StatefulPartitionedCall/model/transformer/encoder/encoder_layer/feed_forward/layer_normalization_1/mul_3", "op": "Mul", "input": ["StatefulPartitionedCall/model/transformer/encoder/encoder_layer/feed_forward/layer_normalization_1/Reshape_1", "StatefulPartitionedCall/model/transformer/encoder/encoder_layer/feed_forward/layer_normalization_1/mul_3/ReadVariableOp"], "attr": {"T": {"type": "DT_FLOAT"}}}, {"name": "StatefulPartitionedCall/model/transformer/encoder/encoder_layer/feed_forward/layer_normalization_1/add", "op": "AddV2", "input": ["StatefulPartitionedCall/model/transformer/encoder/encoder_layer/feed_forward/layer_normalization_1/mul_3", "StatefulPartitionedCall/model/transformer/encoder/encoder_layer/feed_forward/layer_normalization_1/add/ReadVariableOp"], "attr": {"T": {"type": "DT_FLOAT"}}}, {"name": "StatefulPartitionedCall/model/transformer/decoder/decoder_layer/cross_attention/multi_head_attention_2/key/einsum/Einsum", "op": "Einsum", "input": ["StatefulPartitionedCall/model/transformer/encoder/encoder_layer/feed_forward/layer_normalization_1/add", "StatefulPartitionedCall/model/transformer/decoder/decoder_layer/cross_attention/multi_head_attention_2/key/einsum/Einsum/ReadVariableOp"], "attr": {"T": {"type": "DT_FLOAT"}, "equation": {"s": "YWJjLGNkZS0+YWJkZQ=="}, "N": {"i": "2"}}}, {"name": "StatefulPartitionedCall/model/transformer/decoder/decoder_layer/cross_attention/multi_head_attention_2/value/einsum/Einsum", "op": "Einsum", "input": ["StatefulPartitionedCall/model/transformer/encoder/encoder_layer/feed_forward/layer_normalization_1/add", "StatefulPartitionedCall/model/transformer/decoder/decoder_layer/cross_attention/multi_head_attention_2/value/einsum/Einsum/ReadVariableOp"], "attr": {"N": {"i": "2"}, "equation": {"s": "YWJjLGNkZS0+YWJkZQ=="}, "T": {"type": "DT_FLOAT"}}}, {"name": "StatefulPartitionedCall/model/transformer/decoder/decoder_layer/cross_attention/multi_head_attention_2/key/add", "op": "AddV2", "input": ["StatefulPartitionedCall/model/transformer/decoder/decoder_layer/cross_attention/multi_head_attention_2/key/einsum/Einsum", "StatefulPartitionedCall/model/transformer/decoder/decoder_layer/cross_attention/multi_head_attention_2/key/add/ReadVariableOp"], "attr": {"T": {"type": "DT_FLOAT"}}}, {"name": "StatefulPartitionedCall/model/transformer/decoder/decoder_layer/cross_attention/multi_head_attention_2/value/add", "op": "AddV2", "input": ["StatefulPartitionedCall/model/transformer/decoder/decoder_layer/cross_attention/multi_head_attention_2/value/einsum/Einsum", "StatefulPartitionedCall/model/transformer/decoder/decoder_layer/cross_attention/multi_head_attention_2/value/add/ReadVariableOp"], "attr": {"T": {"type": "DT_FLOAT"}}}, {"name": "StatefulPartitionedCall/model/transformer/decoder/decoder_layer/cross_attention/multi_head_attention_2/einsum/Einsum", "op": "Einsum", "input": ["StatefulPartitionedCall/model/transformer/decoder/decoder_layer/cross_attention/multi_head_attention_2/key/add", "StatefulPartitionedCall/model/transformer/decoder/decoder_layer/cross_attention/multi_head_attention_2/Mul"], "attr": {"N": {"i": "2"}, "T": {"type": "DT_FLOAT"}, "equation": {"s": "YWVjZCxhYmNkLT5hY2Jl"}}}, {"name": "StatefulPartitionedCall/model/transformer/decoder/decoder_layer/cross_attention/multi_head_attention_2/softmax_2/add", "op": "AddV2", "input": ["StatefulPartitionedCall/model/transformer/decoder/decoder_layer/cross_attention/multi_head_attention_2/einsum/Einsum", "StatefulPartitionedCall/model/transformer/decoder/decoder_layer/cross_attention/multi_head_attention_2/softmax_2/mul"], "attr": {"T": {"type": "DT_FLOAT"}}}, {"name": "StatefulPartitionedCall/model/transformer/decoder/decoder_layer/cross_attention/multi_head_attention_2/softmax_2/Softmax", "op": "Softmax", "input": ["StatefulPartitionedCall/model/transformer/decoder/decoder_layer/cross_attention/multi_head_attention_2/softmax_2/add"], "attr": {"T": {"type": "DT_FLOAT"}}}, {"name": "StatefulPartitionedCall/model/transformer/decoder/decoder_layer/cross_attention/multi_head_attention_2/einsum_1/Einsum", "op": "Einsum", "input": ["StatefulPartitionedCall/model/transformer/decoder/decoder_layer/cross_attention/multi_head_attention_2/softmax_2/Softmax", "StatefulPartitionedCall/model/transformer/decoder/decoder_layer/cross_attention/multi_head_attention_2/value/add"], "attr": {"T": {"type": "DT_FLOAT"}, "equation": {"s": "YWNiZSxhZWNkLT5hYmNk"}, "N": {"i": "2"}}}, {"name": "StatefulPartitionedCall/model/transformer/decoder/decoder_layer/cross_attention/multi_head_attention_2/attention_output/einsum/Einsum", "op": "Einsum", "input": ["StatefulPartitionedCall/model/transformer/decoder/decoder_layer/cross_attention/multi_head_attention_2/einsum_1/Einsum", "StatefulPartitionedCall/model/transformer/decoder/decoder_layer/cross_attention/multi_head_attention_2/attention_output/einsum/Einsum/ReadVariableOp"], "attr": {"equation": {"s": "YWJjZCxjZGUtPmFiZQ=="}, "T": {"type": "DT_FLOAT"}, "N": {"i": "2"}}}, {"name": "StatefulPartitionedCall/model/transformer/decoder/decoder_layer/cross_attention/multi_head_attention_2/attention_output/add", "op": "AddV2", "input": ["StatefulPartitionedCall/model/transformer/decoder/decoder_layer/cross_attention/multi_head_attention_2/attention_output/einsum/Einsum", "StatefulPartitionedCall/model/transformer/decoder/decoder_layer/cross_attention/multi_head_attention_2/attention_output/add/ReadVariableOp"], "attr": {"T": {"type": "DT_FLOAT"}}}, {"name": "StatefulPartitionedCall/model/transformer/decoder/decoder_layer/cross_attention/add_3/add", "op": "AddV2", "input": ["StatefulPartitionedCall/model/transformer/decoder/decoder_layer/causal_self_attention/layer_normalization_2/add", "StatefulPartitionedCall/model/transformer/decoder/decoder_layer/cross_attention/multi_head_attention_2/attention_output/add"], "attr": {"T": {"type": "DT_FLOAT"}}}, {"name": "StatefulPartitionedCall/model/transformer/decoder/decoder_layer/cross_attention/layer_normalization_3/Shape", "op": "Shape", "input": ["StatefulPartitionedCall/model/transformer/decoder/decoder_layer/cross_attention/add_3/add"], "attr": {"out_type": {"type": "DT_INT32"}, "T": {"type": "DT_FLOAT"}}}, {"name": "StatefulPartitionedCall/model/transformer/decoder/decoder_layer/cross_attention/layer_normalization_3/strided_slice_2", "op": "StridedSlice", "input": ["StatefulPartitionedCall/model/transformer/decoder/decoder_layer/cross_attention/layer_normalization_3/Shape", "StatefulPartitionedCall/model/transformer/decoder/decoder_layer/cross_attention/layer_normalization_3/strided_slice_2/stack", "StatefulPartitionedCall/model/transformer/decoder/decoder_layer/cross_attention/layer_normalization_3/strided_slice_2/stack_1", "StatefulPartitionedCall/model/transformer/decoder/decoder_layer/cross_attention/layer_normalization_3/strided_slice_2/stack_2"], "attr": {"ellipsis_mask": {"i": "0"}, "end_mask": {"i": "0"}, "shrink_axis_mask": {"i": "1"}, "new_axis_mask": {"i": "0"}, "begin_mask": {"i": "0"}, "Index": {"type": "DT_INT32"}, "T": {"type": "DT_INT32"}}}, {"name": "StatefulPartitionedCall/model/transformer/decoder/decoder_layer/cross_attention/layer_normalization_3/strided_slice", "op": "StridedSlice", "input": ["StatefulPartitionedCall/model/transformer/decoder/decoder_layer/cross_attention/layer_normalization_3/Shape", "StatefulPartitionedCall/model/transformer/decoder/decoder_layer/cross_attention/layer_normalization_3/strided_slice/stack", "StatefulPartitionedCall/model/transformer/decoder/decoder_layer/cross_attention/layer_normalization_3/strided_slice/stack_1", "StatefulPartitionedCall/model/transformer/decoder/decoder_layer/cross_attention/layer_normalization_3/strided_slice/stack_2"], "attr": {"new_axis_mask": {"i": "0"}, "T": {"type": "DT_INT32"}, "shrink_axis_mask": {"i": "1"}, "ellipsis_mask": {"i": "0"}, "Index": {"type": "DT_INT32"}, "begin_mask": {"i": "0"}, "end_mask": {"i": "0"}}}, {"name": "StatefulPartitionedCall/model/transformer/decoder/decoder_layer/cross_attention/layer_normalization_3/strided_slice_1", "op": "StridedSlice", "input": ["StatefulPartitionedCall/model/transformer/decoder/decoder_layer/cross_attention/layer_normalization_3/Shape", "StatefulPartitionedCall/model/transformer/decoder/decoder_layer/cross_attention/layer_normalization_3/strided_slice_1/stack", "StatefulPartitionedCall/model/transformer/decoder/decoder_layer/cross_attention/layer_normalization_3/strided_slice_1/stack_1", "StatefulPartitionedCall/model/transformer/decoder/decoder_layer/cross_attention/layer_normalization_3/strided_slice_1/stack_2"], "attr": {"new_axis_mask": {"i": "0"}, "ellipsis_mask": {"i": "0"}, "end_mask": {"i": "0"}, "Index": {"type": "DT_INT32"}, "T": {"type": "DT_INT32"}, "shrink_axis_mask": {"i": "1"}, "begin_mask": {"i": "0"}}}, {"name": "StatefulPartitionedCall/model/transformer/decoder/decoder_layer/cross_attention/layer_normalization_3/mul_1", "op": "Mul", "input": ["StatefulPartitionedCall/model/transformer/decoder/decoder_layer/cross_attention/layer_normalization_3/strided_slice", "StatefulPartitionedCall/model/transformer/decoder/decoder_layer/cross_attention/layer_normalization_3/strided_slice_1"], "attr": {"T": {"type": "DT_INT32"}}}, {"name": "StatefulPartitionedCall/model/transformer/decoder/decoder_layer/cross_attention/layer_normalization_3/Reshape/shape", "op": "Pack", "input": ["StatefulPartitionedCall/model/transformer/decoder/decoder_layer/cross_attention/layer_normalization_3/Reshape/shape/0", "StatefulPartitionedCall/model/transformer/decoder/decoder_layer/cross_attention/layer_normalization_3/mul_1", "StatefulPartitionedCall/model/transformer/decoder/decoder_layer/cross_attention/layer_normalization_3/strided_slice_2", "StatefulPartitionedCall/model/transformer/decoder/decoder_layer/cross_attention/layer_normalization_3/Reshape/shape/3"], "attr": {"N": {"i": "4"}, "T": {"type": "DT_INT32"}, "axis": {"i": "0"}}}, {"name": "ConstantFolding/StatefulPartitionedCall/model/transformer/decoder/decoder_layer/cross_attention/layer_normalization_3/ones/packed_const_axis", "op": "Const", "input": ["^StatefulPartitionedCall/model/transformer/decoder/decoder_layer/cross_attention/layer_normalization_3/mul_1"], "attr": {"dtype": {"type": "DT_INT32"}, "value": {"tensor": {"dtype": "DT_INT32", "tensorShape": {}}}}}, {"name": "ConstantFolding/StatefulPartitionedCall/model/transformer/decoder/decoder_layer/cross_attention/layer_normalization_3/zeros/packed_const_axis", "op": "Const", "input": ["^StatefulPartitionedCall/model/transformer/decoder/decoder_layer/cross_attention/layer_normalization_3/mul_1"], "attr": {"dtype": {"type": "DT_INT32"}, "value": {"tensor": {"dtype": "DT_INT32", "tensorShape": {}}}}}, {"name": "StatefulPartitionedCall/model/transformer/decoder/decoder_layer/cross_attention/layer_normalization_3/Reshape", "op": "Reshape", "input": ["StatefulPartitionedCall/model/transformer/decoder/decoder_layer/cross_attention/add_3/add", "StatefulPartitionedCall/model/transformer/decoder/decoder_layer/cross_attention/layer_normalizati…
"end_mask": {"i": "0"}, "T": {"type": "DT_INT32"}, "begin_mask": {"i": "0"}, "Index": {"type": "DT_INT32"}}}, {"name": "StatefulPartitionedCall/model/transformer/decoder/decoder_layer/feed_forward_1/layer_normalization_4/strided_slice_1", "op": "StridedSlice", "input": ["StatefulPartitionedCall/model/transformer/decoder/decoder_layer/feed_forward_1/layer_normalization_4/Shape", "StatefulPartitionedCall/model/transformer/decoder/decoder_layer/feed_forward_1/layer_normalization_4/strided_slice_1/stack", "StatefulPartitionedCall/model/transformer/decoder/decoder_layer/feed_forward_1/layer_normalization_4/strided_slice_1/stack_1", "StatefulPartitionedCall/model/transformer/decoder/decoder_layer/feed_forward_1/layer_normalization_4/strided_slice_1/stack_2"], "attr": {"T": {"type": "DT_INT32"}, "end_mask": {"i": "0"}, "new_axis_mask": {"i": "0"}, "shrink_axis_mask": {"i": "1"}, "Index": {"type": "DT_INT32"}, "ellipsis_mask": {"i": "0"}, "begin_mask": {"i": "0"}}}, {"name": "StatefulPartitionedCall/model/transformer/decoder/decoder_layer/feed_forward_1/layer_normalization_4/mul_1", "op": "Mul", "input": ["StatefulPartitionedCall/model/transformer/decoder/decoder_layer/feed_forward_1/layer_normalization_4/strided_slice", "StatefulPartitionedCall/model/transformer/decoder/decoder_layer/feed_forward_1/layer_normalization_4/strided_slice_1"], "attr": {"T": {"type": "DT_INT32"}}}, {"name": "StatefulPartitionedCall/model/transformer/decoder/decoder_layer/feed_forward_1/layer_normalization_4/Reshape/shape", "op": "Pack", "input": ["StatefulPartitionedCall/model/transformer/decoder/decoder_layer/feed_forward_1/layer_normalization_4/Reshape/shape/0", "StatefulPartitionedCall/model/transformer/decoder/decoder_layer/feed_forward_1/layer_normalization_4/mul_1", "StatefulPartitionedCall/model/transformer/decoder/decoder_layer/feed_forward_1/layer_normalization_4/strided_slice_2", "StatefulPartitionedCall/model/transformer/decoder/decoder_layer/feed_forward_1/layer_normalization_4/Reshape/shape/3"], "attr": {"N": {"i": "4"}, "T": {"type": "DT_INT32"}, "axis": {"i": "0"}}}, {"name": "ConstantFolding/StatefulPartitionedCall/model/transformer/decoder/decoder_layer/feed_forward_1/layer_normalization_4/ones/packed_const_axis", "op": "Const", "input": ["^StatefulPartitionedCall/model/transformer/decoder/decoder_layer/feed_forward_1/layer_normalization_4/mul_1"], "attr": {"dtype": {"type": "DT_INT32"}, "value": {"tensor": {"dtype": "DT_INT32", "tensorShape": {}}}}}, {"name": "ConstantFolding/StatefulPartitionedCall/model/transformer/decoder/decoder_layer/feed_forward_1/layer_normalization_4/zeros/packed_const_axis", "op": "Const", "input": ["^StatefulPartitionedCall/model/transformer/decoder/decoder_layer/feed_forward_1/layer_normalization_4/mul_1"], "attr": {"dtype": {"type": "DT_INT32"}, "value": {"tensor": {"dtype": "DT_INT32", "tensorShape": {}}}}}, {"name": "StatefulPartitionedCall/model/transformer/decoder/decoder_layer/feed_forward_1/layer_normalization_4/Reshape", "op": "Reshape", "input": ["StatefulPartitionedCall/model/transformer/decoder/decoder_layer/feed_forward_1/add_4/add", "StatefulPartitionedCall/model/transformer/decoder/decoder_layer/feed_forward_1/layer_normalization_4/Reshape/shape"], "attr": {"T": {"type": "DT_FLOAT"}, "Tshape": {"type": "DT_INT32"}}}, {"name": "StatefulPartitionedCall/model/transformer/decoder/decoder_layer/feed_forward_1/layer_normalization_4/ones/packed", "op": "ExpandDims", "input": ["StatefulPartitionedCall/model/transformer/decoder/decoder_layer/feed_forward_1/layer_normalization_4/mul_1", "ConstantFolding/StatefulPartitionedCall/model/transformer/decoder/decoder_layer/feed_forward_1/layer_normalization_4/ones/packed_const_axis"], "attr": {"Tdim": {"type": "DT_INT32"}, "T": {"type": "DT_INT32"}}}, {"name": "StatefulPartitionedCall/model/transformer/decoder/decoder_layer/feed_forward_1/layer_normalization_4/zeros/packed", "op": "ExpandDims", "input": ["StatefulPartitionedCall/model/transformer/decoder/decoder_layer/feed_forward_1/layer_normalization_4/mul_1", "ConstantFolding/StatefulPartitionedCall/model/transformer/decoder/decoder_layer/feed_forward_1/layer_normalization_4/zeros/packed_const_axis"], "attr": {"T": {"type": "DT_INT32"}, "Tdim": {"type": "DT_INT32"}}}, {"name": "StatefulPartitionedCall/model/transformer/decoder/decoder_layer/feed_forward_1/layer_normalization_4/ones", "op": "Fill", "input": ["StatefulPartitionedCall/model/transformer/decoder/decoder_layer/feed_forward_1/layer_normalization_4/ones/packed", "StatefulPartitionedCall/model/transformer/decoder/decoder_layer/feed_forward_1/layer_normalization_4/ones/Const"], "attr": {"T": {"type": "DT_FLOAT"}, "index_type": {"type": "DT_INT32"}}}, {"name": "StatefulPartitionedCall/model/transformer/decoder/decoder_layer/feed_forward_1/layer_normalization_4/zeros", "op": "Fill", "input": ["StatefulPartitionedCall/model/transformer/decoder/decoder_layer/feed_forward_1/layer_normalization_4/zeros/packed", "StatefulPartitionedCall/model/transformer/decoder/decoder_layer/feed_forward_1/layer_normalization_4/zeros/Const"], "attr": {"index_type": {"type": "DT_INT32"}, "T": {"type": "DT_FLOAT"}}}, {"name": "StatefulPartitionedCall/model/transformer/decoder/decoder_layer/feed_forward_1/layer_normalization_4/FusedBatchNormV3", "op": "FusedBatchNormV3", "input": ["StatefulPartitionedCall/model/transformer/decoder/decoder_layer/feed_forward_1/layer_normalization_4/Reshape", "StatefulPartitionedCall/model/transformer/decoder/decoder_layer/feed_forward_1/layer_normalization_4/ones", "StatefulPartitionedCall/model/transformer/decoder/decoder_layer/feed_forward_1/layer_normalization_4/zeros", "StatefulPartitionedCall/model/transformer/decoder/decoder_layer/feed_forward_1/layer_normalization_4/Const", "StatefulPartitionedCall/model/transformer/decoder/decoder_layer/feed_forward_1/layer_normalization_4/Const_1"], "attr": {"exponential_avg_factor": {"f": 1.0}, "epsilon": {"f": 0.001}, "data_format": {"s": "TkNIVw=="}, "is_training": {"b": true}, "T": {"type": "DT_FLOAT"}, "U": {"type": "DT_FLOAT"}}}, {"name": "StatefulPartitionedCall/model/transformer/decoder/decoder_layer/feed_forward_1/layer_normalization_4/Reshape_1", "op": "Reshape", "input": ["StatefulPartitionedCall/model/transformer/decoder/decoder_layer/feed_forward_1/layer_normalization_4/FusedBatchNormV3", "StatefulPartitionedCall/model/transformer/decoder/decoder_layer/feed_forward_1/layer_normalization_4/Shape"], "attr": {"Tshape": {"type": "DT_INT32"}, "T": {"type": "DT_FLOAT"}}}, {"name": "StatefulPartitionedCall/model/transformer/decoder/decoder_layer/feed_forward_1/layer_normalization_4/mul_3", "op": "Mul", "input": ["StatefulPartitionedCall/model/transformer/decoder/decoder_layer/feed_forward_1/layer_normalization_4/Reshape_1", "StatefulPartitionedCall/model/transformer/decoder/decoder_layer/feed_forward_1/layer_normalization_4/mul_3/ReadVariableOp"], "attr": {"T": {"type": "DT_FLOAT"}}}, {"name": "StatefulPartitionedCall/model/transformer/decoder/decoder_layer/feed_forward_1/layer_normalization_4/add", "op": "AddV2", "input": ["StatefulPartitionedCall/model/transformer/decoder/decoder_layer/feed_forward_1/layer_normalization_4/mul_3", "StatefulPartitionedCall/model/transformer/decoder/decoder_layer/feed_forward_1/layer_normalization_4/add/ReadVariableOp"], "attr": {"T": {"type": "DT_FLOAT"}}}, {"name": "StatefulPartitionedCall/model/transformer/dense_5/Tensordot/Shape", "op": "Shape", "input": ["StatefulPartitionedCall/model/transformer/decoder/decoder_layer/feed_forward_1/layer_normalization_4/add"], "attr": {"out_type": {"type": "DT_INT32"}, "T": {"type": "DT_FLOAT"}}}, {"name": "StatefulPartitionedCall/model/transformer/dense_5/Tensordot/GatherV2_1", "op": "GatherV2", "input": ["StatefulPartitionedCall/model/transformer/dense_5/Tensordot/Shape", "StatefulPartitionedCall/model/transformer/dense_5/Tensordot/axes", "StatefulPartitionedCall/model/transformer/dense_5/Tensordot/GatherV2_1/axis"], "attr": {"Tparams": {"type": "DT_INT32"}, "Taxis": {"type": "DT_INT32"}, "Tindices": {"type": "DT_INT32"}, "batch_dims": {"i": "0"}}}, {"name": "StatefulPartitionedCall/model/transformer/dense_5/Tensordot/GatherV2", "op": "GatherV2", "input": ["StatefulPartitionedCall/model/transformer/dense_5/Tensordot/Shape", "StatefulPartitionedCall/model/transformer/dense_5/Tensordot/free", "StatefulPartitionedCall/model/transformer/dense_5/Tensordot/GatherV2/axis"], "attr": {"Tparams": {"type": "DT_INT32"}, "Taxis": {"type": "DT_INT32"}, "batch_dims": {"i": "0"}, "Tindices": {"type": "DT_INT32"}}}, {"name": "StatefulPartitionedCall/model/transformer/dense_5/Tensordot/Prod_1", "op": "Prod", "input": ["StatefulPartitionedCall/model/transformer/dense_5/Tensordot/GatherV2_1", "StatefulPartitionedCall/model/transformer/dense_5/Tensordot/Const_1"], "attr": {"Tidx": {"type": "DT_INT32"}, "T": {"type": "DT_INT32"}, "keep_dims": {"b": false}}}, {"name": "StatefulPartitionedCall/model/transformer/dense_5/Tensordot/Prod", "op": "Prod", "input": ["StatefulPartitionedCall/model/transformer/dense_5/Tensordot/GatherV2", "StatefulPartitionedCall/model/transformer/dense_5/Tensordot/Const"], "attr": {"T": {"type": "DT_INT32"}, "Tidx": {"type": "DT_INT32"}, "keep_dims": {"b": false}}}, {"name": "StatefulPartitionedCall/model/transformer/dense_5/Tensordot/concat_1", "op": "ConcatV2", "input": ["StatefulPartitionedCall/model/transformer/dense_5/Tensordot/GatherV2", "StatefulPartitionedCall/model/transformer/dense_5/Tensordot/Const_2", "StatefulPartitionedCall/model/transformer/dense_5/Tensordot/concat_1/axis"], "attr": {"Tidx": {"type": "DT_INT32"}, "N": {"i": "2"}, "T": {"type": "DT_INT32"}}}, {"name": "StatefulPartitionedCall/model/transformer/dense_5/Tensordot/stack", "op": "Pack", "input": ["StatefulPartitionedCall/model/transformer/dense_5/Tensordot/Prod", "StatefulPartitionedCall/model/transformer/dense_5/Tensordot/Prod_1"], "attr": {"N": {"i": "2"}, "T": {"type": "DT_INT32"}, "axis": {"i": "0"}}}, {"name": "StatefulPartitionedCall/model/transformer/dense_5/Tensordot/Reshape", "op": "Reshape", "input": ["StatefulPartitionedCall/model/transformer/decoder/decoder_layer/feed_forward_1/layer_normalization_4/add", "StatefulPartitionedCall/model/transformer/dense_5/Tensordot/stack"], "attr": {"Tshape": {"type": "DT_INT32"}, "T": {"type": "DT_FLOAT"}}}, {"name": "StatefulPartitionedCall/model/transformer/dense_5/Tensordot/MatMul", "op": "MatMul", "input": ["StatefulPartitionedCall/model/transformer/dense_5/Tensordot/Reshape", "StatefulPartitionedCall/model/transformer/dense_5/Tensordot/ReadVariableOp"], "device": "/device:CPU:0", "attr": {"transpose_a": {"b": false}, "T": {"type": "DT_FLOAT"}, "transpose_b": {"b": false}}}, {"name": "StatefulPartitionedCall/model/transformer/dense_5/Tensordot", "op": "Reshape", "input": ["StatefulPartitionedCall/model/transformer/dense_5/Tensordot/MatMul", "StatefulPartitionedCall/model/transformer/dense_5/Tensordot/concat_1"], "attr": {"T": {"type": "DT_FLOAT"}, "Tshape": {"type": "DT_INT32"}}}, {"name": "StatefulPartitionedCall/model/transformer/dense_5/BiasAdd", "op": "BiasAdd", "input": ["StatefulPartitionedCall/model/transformer/dense_5/Tensordot", "StatefulPartitionedCall/model/transformer/dense_5/BiasAdd/ReadVariableOp"], "attr": {"T": {"type": "DT_FLOAT"}, "data_format": {"s": "TkhXQw=="}}}, {"name": "Identity", "op": "Identity", "input": ["StatefulPartitionedCall/model/transformer/dense_5/BiasAdd"], "attr": {"T": {"type": "DT_FLOAT"}}}], "library": {}, "versions": {"producer": 1205}}, "weightsManifest": [{"paths": ["group1-shard1of2.bin", "group1-shard2of2.bin"], "weights": [{"name": "StatefulPartitionedCall/model/transformer/dense_5/Tensordot/Const", "shape": [1], "dtype": "int32"}, {"name": "StatefulPartitionedCall/model/transformer/dense_5/Tensordot/axes", "shape": [1], "dtype": "int32"}, {"name": "StatefulPartitionedCall/model/transformer/dense_5/Tensordot/GatherV2_1/axis", "shape": [], "dtype": "int32"}, {"name": "StatefulPartitionedCall/model/transformer/dense_5/Tensordot/Const_1", "shape": [1], "dtype": "int32"}, {"name": "StatefulPartitionedCall/model/transformer/dense_5/Tensordot/ReadVariableOp", "shape": [141, 60], "dtype": "float32"}, {"name": "StatefulPartitionedCall/model/transformer/decoder/decoder_layer/feed_forward_1/layer_normalization_4/Reshape/shape/0", "shape": [], "dtype": "int32"}, {"name": "StatefulPartitionedCall/model/transformer/decoder/decoder_layer/feed_forward_1/layer_normalization_4/strided_slice_2/stack", "shape": [1], "dtype": "int32"}, {"name": "StatefulPartitionedCall/model/transformer/decoder/decoder_layer/feed_forward_1/layer_normalization_4/strided_slice_2/stack_1", "shape": [1], "dtype": "int32"}, {"name": "StatefulPartitionedCall/model/transformer/decoder/decoder_layer/feed_forward_1/layer_normalization_4/strided_slice_2/stack_2", "shape": [1], "dtype": "int32"}, {"name": "StatefulPartitionedCall/model/transformer/decoder/decoder_layer/feed_forward_1/layer_normalization_4/Reshape/shape/3", "shape": [], "dtype": "int32"}, {"name": "StatefulPartitionedCall/model/transformer/decoder/decoder_layer/feed_forward_1/layer_normalization_4/ones/Const", "shape": [], "dtype": "float32"}, {"name": "StatefulPartitionedCall/model/transformer/decoder/decoder_layer/feed_forward_1/layer_normalization_4/strided_slice/stack", "shape": [1], "dtype": "int32"}, {"name": "StatefulPartitionedCall/model/transformer/decoder/decoder_layer/feed_forward_1/layer_normalization_4/strided_slice/stack_1", "shape": [1], "dtype": "int32"}, {"name": "StatefulPartitionedCall/model/transformer/decoder/decoder_layer/feed_forward_1/layer_normalization_4/strided_slice/stack_2", "shape": [1], "dtype": "int32"}, {"name": "StatefulPartitionedCall/model/transformer/decoder/decoder_layer/feed_forward_1/layer_normalization_4/strided_slice_1/stack", "shape": [1], "dtype": "int32"}, {"name": "StatefulPartitionedCall/model/transformer/decoder/decoder_layer/feed_forward_1/layer_normalization_4/strided_slice_1/stack_1", "shape": [1], "dtype": "int32"}, {"name": "StatefulPartitionedCall/model/transformer/decoder/decoder_layer/feed_forward_1/layer_normalization_4/strided_slice_1/stack_2", "shape": [1], "dtype": "int32"}, {"name": "StatefulPartitionedCall/model/transformer/decoder/decoder_layer/feed_forward_1/layer_normalization_4/zeros/Const", "shape": [], "dtype": "float32"}, {"name": "StatefulPartitionedCall/model/transformer/decoder/decoder_layer/feed_forward_1/layer_normalization_4/Const", "shape": [0], "dtype": "float32"}, {"name": "StatefulPartitionedCall/model/transformer/decoder/decoder_layer/feed_forward_1/layer_normalization_4/Const_1", "shape": [0], "dtype": "float32"}, {"name": "StatefulPartitionedCall/model/transformer/decoder/decoder_layer/feed_forward_1/sequential_1/dense_4/Tensordot/Const", "shape": [1], "dtype": "int32"}, {"name": "StatefulPartitionedCall/model/transformer/decoder/decoder_layer/feed_forward_1/sequential_1/dense_4/Tensordot/axes", "shape": [1], "dtype": "int32"}, {"name": "StatefulPartitionedCall/model/transformer/decoder/decoder_layer/feed_forward_1/sequential_1/dense_4/Tensordot/GatherV2_1/axis", "shape": [], "dtype": "int32"}, {"name": "StatefulPartitionedCall/model/transformer/decoder/decoder_layer/feed_forward_1/sequential_1/dense_4/Tensordot/Const_1", "shape": [1], "dtype": "int32"}, {"name": "StatefulPartitionedCall/model/transformer/decoder/decoder_layer/feed_forward_1/sequential_1/dense_4/Tensordot/ReadVariableOp", "shape": [389, 141], "dtype": "float32"}, {"name": "StatefulPartitionedCall/model/transformer/decoder/decoder_layer/feed_forward_1/sequential_1/dense_3/Tensordot/Const", "shape": [1], "dtype": "int32"}, {"name": "StatefulPartitionedCall/model/transformer/decoder/decoder_layer/feed_forward_1/sequential_1/dense_3/Tensordot/axes", "shape": [1], "dtype": "int32"}, {"name": "StatefulPartitionedCall/model/transformer/decoder/decoder_layer/feed_forward_1/sequential_1/dense_3/Tensordot/GatherV2_1/axis", "shape": [], "dtype": "int32"}, {"name": "StatefulPartitionedCall/model/transformer/decoder/decoder_layer/feed_forward_1/sequential_1/dense_3/Tensordot/Const_1", "shape": [1], "dtype": "int32"}, {"name": "StatefulPartitionedCall/model/transformer/decoder/decoder_layer/feed_forward_1/sequential_1/dense_3/Tensordot/ReadVariableOp", "shape": [141, 389], "dtype": "float32"}, {"name": "StatefulPartitionedCall/model/transformer/decoder/decoder_layer/cross_attention/layer_normalization_3/Reshape/shape/0", "shape": [], "dtype": "int32"}, {"name": "StatefulPartitionedCall/model/transformer/decoder/decoder_layer/cross_attention/layer_normalization_3/strided_slice_2/stack", "shape": [1], "dtype": "int32"}, {"name": "StatefulPartitionedCall/model/transformer/decoder/decoder_layer/cross_attention/layer_normalization_3/strided_slice_2/stack_1", "shape": [1], "dtype": "int32"}, {"name": "StatefulPartitionedCall/model/transformer/decoder/decoder_layer/cross_attention/layer_normalization_3/strided_slice_2/stack_2", "shape": [1], "dtype": "int32"}, {"name": "StatefulPartitionedCall/model/transformer/decoder/decoder_layer/cross_attention/layer_normalization_3/Reshape/shape/3", "shape": [], "dtype": "int32"}, {"name": "StatefulPartitionedCall/model/transformer/decoder/decoder_layer/cross_attention/layer_normalization_3/ones/Const", "shape": [], "dtype": "float32"}, {"name": "StatefulPartitionedCall/model/transformer/decoder/decoder_layer/cross_attention/layer_normalization_3/strided_slice/stack", "shape": [1], "dtype": "int32"}, {"name": "StatefulPartitionedCall/model/transformer/decoder/decoder_layer/cross_attention/layer_normalization_3/strided_slice/stack_1", "shape": [1], "dtype": "int32"}, {"name": "StatefulPartitionedCall/model/transformer/decoder/decoder_layer/cross_attention/layer_normalization_3/strided_slice/stack_2", "shape": [1], "dtype": "int32"}, {"name": "StatefulPartitionedCall/model/transformer/decoder/decoder_layer/cross_attention/layer_normalization_3/strided_slice_1/stack", "shape": [1], "dtype": "int32"}, {"name": "StatefulPartitionedCall/model/transformer/decoder/decoder_layer/cross_attention/layer_normalization_3/strided_slice_1/stack_1", "shape": [1], "dtype": "int32"}, {"name": "StatefulPartitionedCall/model/transformer/decoder/decoder_layer/cross_attention/layer_normalization_3/strided_slice_1/stack_2", "shape": [1], "dtype": "int32"}, {"name": "StatefulPartitionedCall/model/transformer/decoder/decoder_layer/cross_attention/layer_normalization_3/zeros/Const", "shape": [], "dtype": "float32"}, {"name": "StatefulPartitionedCall/model/transformer/decoder/decoder_layer/cross_attention/layer_normalization_3/Const", "shape": [0], "dtype": "float32"}, {"name": "StatefulPartitionedCall/model/transformer/decoder/decoder_layer/cross_attention/layer_normalization_3/Const_1", "shape": [0], "dtype": "float32"}, {"name": "StatefulPartitionedCall/model/transformer/decoder/decoder_layer/cross_attention/multi_head_attention_2/key/einsum/Einsum/ReadVariableOp", "shape": [141, 3, 141], "dtype": "float32"}, {"name": "StatefulPartitionedCall/model/transformer/decoder/decoder_layer/cross_attention/multi_head_attention_2/key/add/ReadVariableOp", "shape": [3, 141], "dtype": "float32"}, {"name": "StatefulPartitionedCall/model/transformer/decoder/decoder_layer/causal_self_attention/layer_normalization_2/Reshape/shape/0", "shape": [], "dtype": "int32"}, {"name": "StatefulPartitionedCall/model/transformer/decoder/decoder_layer/causal_self_attention/layer_normalization_2/strided_slice_2/stack", "shape": [1], "dtype": "int32"}, {"name": "StatefulPartitionedCall/model/transformer/decoder/decoder_layer/causal_self_attention/layer_normalization_2/strided_slice_2/stack_1", "shape": [1], "dtype": "int32"}, {"name": "StatefulPartitionedCall/model/transformer/decoder/decoder_layer/causal_self_attention/layer_normalization_2/strided_slice_2/stack_2", "shape": [1], "dtype": "int32"}, {"name": "StatefulPartitionedCall/model/transformer/decoder/decoder_layer/causal_self_attention/layer_normalization_2/Reshape/shape/3", "shape": [], "dtype": "int32"}, {"name": "StatefulPartitionedCall/model/transformer/decoder/decoder_layer/causal_self_attention/layer_normalization_2/ones/Const", "shape": [], "dtype": "float32"}, {"name": "StatefulPartitionedCall/model/transformer/decoder/decoder_layer/causal_self_attention/layer_normalization_2/strided_slice/stack", "shape": [1], "dtype": "int32"}, {"name": "StatefulPartitionedCall/model/transformer/decoder/decoder_layer/causal_self_attention/layer_normalization_2/strided_slice/stack_1", "shape": [1], "dtype": "int32"}, {"name": "StatefulPartitionedCall/model/transformer/decoder/decoder_layer/causal_self_attention/layer_normalization_2/strided_slice/stack_2", "shape": [1], "dtype": "int32"}, {"name": "StatefulPartitionedCall/model/transformer/decoder/decoder_layer/causal_self_attention/layer_normalization_2/strided_slice_1/stack", "shape": [1], "dtype": "int32"}, {"name": "StatefulPartitionedCall/model/transformer/decoder/decoder_layer/causal_self_attention/layer_normalization_2/strided_slice_1/stack_1", "shape": [1], "dtype": "int32"}, {"name": "StatefulPartitionedCall/model/transformer/decoder/decoder_layer/causal_self_attention/layer_normalization_2/strided_slice_1/stack_2", "shape": [1], "dtype": "int32"}, {"name": "StatefulPartitionedCall/model/transformer/decoder/decoder_layer/causal_self_attention/layer_normalization_2/zeros/Const", "shape": [], "dtype": "float32"}, {"name": "StatefulPartitionedCall/model/transformer/decoder/decoder_layer/causal_self_attention/layer_normalization_2/Const", "shape": [0], "dtype": "float32"}, {"name": "StatefulPartitionedCall/model/transformer/decoder/decoder_layer/causal_self_attention/layer_normalization_2/Const_1", "shape": [0], "dtype": "float32"}, {"name": "StatefulPartitionedCall/model/transformer/decoder/decoder_layer/causal_self_attention/multi_head_attention_1/key/einsum/Einsum/ReadVariableOp", "shape": [141, 3, 141], "dtype": "float32"}, {"name": "StatefulPartitionedCall/model/transformer/decoder/decoder_layer/causal_self_attention/multi_head_attention_1/key/add/ReadVariableOp", "shape": [3, 141], "dtype": "float32"}, {"name": "StatefulPartitionedCall/model/transformer/decoder/decoder_layer/causal_self_attention/multi_head_attention_1/query/einsum/Einsum/ReadVariableOp", "shape": [141, 3, 141], "dtype": "float32"}, {"name": "StatefulPartitionedCall/model/transformer/decoder/decoder_layer/causal_self_attention/multi_head_attention_1/query/add/ReadVariableOp", "shape": [3, 141], "dtype": "float32"}, {"name": "StatefulPartitionedCall/model/transformer/decoder/decoder_layer/causal_self_attention/multi_head_attention_1/Mul/y", "shape": [], "dtype": "float32"}, {"name": "StatefulPartitionedCall/model/transformer/decoder/decoder_layer/causal_self_attention/multi_head_attention_1/softmax_1/sub/x", "shape": [], "dtype": "float32"}, {"name": "StatefulPartitionedCall/model/transformer/decoder/decoder_layer/causal_self_attention/multi_head_attention_1/strided_slice/stack", "shape": [3], "dtype": "int32"}, {"name": "StatefulPartitionedCall/model/transformer/decoder/decoder_layer/causal_self_attention/multi_head_attention_1/strided_slice/stack_1", "shape": [3], "dtype": "int32"}, {"name": "StatefulPartitionedCall/model/transformer/decoder/decoder_layer/causal_self_attention/multi_head_attention_1/strided_slice/stack_2", "shape": [3], "dtype": "int32"}, {"name": "StatefulPartitionedCall/model/transformer/decoder/decoder_layer/causal_self_attention/multi_head_attention_1/strided_slice_1/stack", "shape": [3], "dtype": "int32"}, {"name": "StatefulPartitionedCall/model/transformer/decoder/decoder_layer/causal_self_attention/multi_head_attention_1/strided_slice_1/stack_1", "shape": [3], "dtype": "int32"}, {"name": "StatefulPartitionedCall/model/transformer/decoder/decoder_layer/causal_self_attention/multi_head_attention_1/strided_slice_1/stack_2", "shape": [3], "dtype": "int32"}, {"name": "StatefulPartitionedCall/model/transformer/decoder/decoder_layer/causal_self_attention/multi_head_attention_1/strided_slice_2/stack", "shape": [3], "dtype": "int32"}, {"name": "StatefulPartitionedCall/model/transformer/decoder/decoder_layer/causal_self_attention/multi_head_attention_1/strided_slice_2/stack_1", "shape": [3], "dtype": "int32"}, {"name": "StatefulPartitionedCall/model/transformer/decoder/decoder_layer/causal_self_attention/multi_head_attention_1/strided_slice_2/stack_2", "shape": [3], "dtype": "int32"}, {"name": "StatefulPartitionedCall/model/transformer/decoder/decoder_layer/causal_self_attention/multi_head_attention_1/ones/packed/0", "shape": [], "dtype": "int32"}, {"name": "StatefulPartitionedCall/model/transformer/decoder/decoder_layer/causal_self_attention/multi_head_attention_1/strided_slice_3/stack", "shape": [1], "dtype": "int32"}, {"name": "StatefulPartitionedCall/model/transformer/decoder/decoder_layer/causal_self_attention/multi_head_attention_1/strided_slice_3/stack_1", "shape": [1], "dtype": "int32"}, {"name": "StatefulPartitionedCall/model/transformer/decoder/decoder_layer/causal_self_attention/multi_head_attention_1/strided_slice_3/stack_2", "shape": [1], "dtype": "int32"}, {"name": "StatefulPartitionedCall/model/transformer/decoder/decoder_layer/causal_self_attention/multi_head_attention_1/strided_slice_4/stack", "shape": [1], "dtype": "int32"}, {"name": "StatefulPartitionedCall/model/transformer/decoder/decoder_layer/causal_self_attention/multi_head_attention_1/strided_slice_4/stack_1", "shape": [1], "dtype": "int32"}, {"name": "StatefulPartitionedCall/model/transformer/decoder/decoder_layer/causal_self_attention/multi_head_attention_1/strided_slice_4/stack_2", "shape": [1], "dtype": "int32"}, {"name": "StatefulPartitionedCall/model/transformer/decoder/decoder_layer/causal_self_attention/multi_head_attention_1/ones/Const", "shape": [], "dtype": "bool"}, {"name": "StatefulPartitionedCall/model/transformer/decoder/decoder_layer/causal_self_attention/multi_head_attention_1/MatrixBandPart/num_lower", "shape": [], "dtype": "int32"}, {"name": "StatefulPartitionedCall/model/transformer/decoder/decoder_layer/causal_self_attention/multi_head_attention_1/MatrixBandPart/num_upper", "shape": [], "dtype": "int32"}, {"name": "StatefulPartitionedCall/model/transformer/decoder/decoder_layer/causal_self_attention/multi_head_attention_1/ExpandDims/dim", "shape": [], "dtype": "int32"}, {"name": "StatefulPartitionedCall/model/transformer/decoder/decoder_layer/causal_self_attention/multi_head_attention_1/softmax_1/mul/y", "shape": [], "dtype": "float32"}, {"name": "unknown_18", "shape": [60, 141], "dtype": "float32"}, {"name": "StatefulPartitionedCall/model/transformer/decoder/positional_embedding_1/embedding/embedding_lookup/axis", "shape": [], "dtype": "int32"}, {"name": "StatefulPartitionedCall/model/transformer/decoder/positional_embedding_1/Sqrt", "shape": [], "dtype": "float32"}, {"name": "unknown_19", "shape": [2048, 142], "dtype": "float32"}, {"name": "StatefulPartitionedCall/model/transformer/decoder/positional_embedding_1/strided_slice_1/stack", "shape": [3], "dtype": "int32"}, {"name": "StatefulPartitionedCall/model/transformer/decoder/positional_embedding_1/strided_slice_1/stack_1/0", "shape": [], "dtype": "int32"}, {"name": "StatefulPartitionedCall/model/transformer/decoder/positional_embedding_1/strided_slice/stack", "shape": [1], "dtype": "int32"}, {"name": "StatefulPartitionedCall/model/transformer/decoder/positional_embedding_1/strided_slice/stack_1", "shape": [1], "dtype": "int32"}, {"name": "StatefulPartitionedCall/model/transformer/decoder/positional_embedding_1/strided_slice/stack_2", "shape": [1], "dtype": "int32"}, {"name": "StatefulPartitionedCall/model/transformer/decoder/positional_embedding_1/strided_slice_1/stack_1/2", "shape": [], "dtype": "int32"}, {"name": "StatefulPartitionedCall/model/transformer/decoder/positional_embedding_1/strided_slice_1/stack_2", "shape": [3], "dtype": "int32"}, {"name": "StatefulPartitionedCall/model/transformer/decoder/decoder_layer/causal_self_attention/multi_head_attention_1/value/einsum/Einsum/ReadVariableOp", "shape": [141, 3, 141], "dtype": "float32"}, {"name": "StatefulPartitionedCall/model/transformer/decoder/decoder_layer/causal_self_attention/multi_head_attention_1/value/add/ReadVariableOp", "shape": [3, 141], "dtype": "float32"}, {"name": "StatefulPartitionedCall/model/transformer/decoder/decoder_layer/causal_self_attention/multi_head_attention_1/attention_output/einsum/Einsum/ReadVariableOp", "shape": [3, 141, 141], "dtype": "float32"}, {"name": "StatefulPartitionedCall/model/transformer/decoder/decoder_layer/causal_self_attention/multi_head_attention_1/attention_output/add/ReadVariableOp", "shape": [141], "dtype": "float32"}, {"name": "StatefulPartitionedCall/model/transformer/decoder/decoder_layer/causal_self_attention/layer_normalization_2/mul_3/ReadVariableOp", "shape": [141], "dtype": "float32"}, {"name": "StatefulPartitionedCall/model/transformer/decoder/decoder_layer/causal_self_attention/layer_normalization_2/add/ReadVariableOp", "shape": [141], "dtype": "float32"}, {"name": "StatefulPartitionedCall/model/transformer/decoder/decoder_layer/cross_attention/multi_head_attention_2/query/einsum/Einsum/ReadVariableOp", "shape": [141, 3, 141], "dtype": "float32"}, {"name": "StatefulPartitionedCall/model/transformer/decoder/decoder_layer/cross_attention/multi_head_attention_2/query/add/ReadVariableOp", "shape": [3, 141], "dtype": "float32"}, {"name": "StatefulPartitionedCall/model/transformer/decoder/decoder_layer/cross_attention/multi_head_attention_2/Mul/y", "shape": [], "dtype": "float32"}, {"name": "StatefulPartitionedCall/model/transformer/decoder/decoder_layer/cross_attention/multi_head_attention_2/softmax_2/sub/x", "shape": [], "dtype": "float32"}, {"name": "StatefulPartitionedCall/model/transformer/decoder/decoder_layer/causal_self_attention/add_2/ExpandDims/dim", "shape": [], "dtype": "int32"}, {"name": "StatefulPartitionedCall/model/transformer/decoder/positional_embedding_1/NotEqual/y", "shape": [], "dtype": "float32"}, {"name": "StatefulPartitionedCall/model/transformer/decoder/decoder_layer/causal_self_attention/add_2/ExpandDims_1/dim", "shape": [], "dtype": "int32"}, {"name": "StatefulPartitionedCall/model/transformer/decoder/decoder_layer/causal_self_attention/add_2/concat/axis", "shape": [], "dtype": "int32"}, {"name": "StatefulPartitionedCall/model/transformer/decoder/decoder_layer/causal_self_attention/add_2/All/reduction_indices", "shape": [], "dtype": "int32"}, {"name": "StatefulPartitionedCall/model/transformer/decoder/decoder_layer/cross_attention/multi_head_attention_2/strided_slice/stack", "shape": [3], "dtype": "int32"}, {"name": "StatefulPartitionedCall/model/transformer/decoder/decoder_layer/cross_attention/multi_head_attention_2/strided_slice/stack_1", "shape": [3], "dtype": "int32"}, {"name": "StatefulPartitionedCall/model/transformer/decoder/decoder_layer/cross_attention/multi_head_attention_2/strided_slice/stack_2", "shape": [3], "dtype": "int32"}, {"name": "StatefulPartitionedCall/model/transformer/decoder/decoder_layer/cross_attention/multi_head_attention_2/ExpandDims/dim", "shape": [], "dtype": "int32"}, {"name": "StatefulPartitionedCall/model/transformer/decoder/decoder_layer/cross_attention/multi_head_attention_2/softmax_2/mul/y", "shape": [], "dtype": "float32"}, {"name": "StatefulPartitionedCall/model/transformer/encoder/encoder_layer/feed_forward/layer_normalization_1/Reshape/shape/0", "shape": [], "dtype": "int32"}, {"name": "StatefulPartitionedCall/model/transformer/encoder/encoder_layer/feed_forward/layer_normalization_1/strided_slice_2/stack", "shape": [1], "dtype": "int32"}, {"name": "StatefulPartitionedCall/model/transformer/encoder/encoder_layer/feed_forward/layer_normalization_1/strided_slice_2/stack_1", "shape": [1], "dtype": "int32"}, {"name": "StatefulPartitionedCall/model/transformer/encoder/encoder_layer/feed_forward/layer_normalization_1/strided_slice_2/stack_2", "shape": [1], "dtype": "int32"}, {"name": "StatefulPartitionedCall/model/transformer/encoder/encoder_layer/feed_forward/layer_normalization_1/Reshape/shape/3", "shape": [], "dtype": "int32"}, {"name": "StatefulPartitionedCall/model/transformer/encoder/encoder_layer/feed_forward/layer_normalization_1/ones/Const", "shape": [], "dtype": "float32"}, {"name": "StatefulPartitionedCall/model/transformer/encoder/encoder_layer/feed_forward/layer_normalization_1/strided_slice/stack", "shape": [1], "dtype": "int32"}, {"name": "StatefulPartitionedCall/model/transformer/encoder/encoder_layer/feed_forward/layer_normalization_1/strided_slice/stack_1", "shape": [1], "dtype": "int32"}, {"name": "StatefulPartitionedCall/model/transformer/encoder/encoder_layer/feed_forward/layer_normalization_1/strided_slice/stack_2", "shape": [1], "dtype": "int32"}, {"name": "StatefulPartitionedCall/model/transformer/encoder/encoder_layer/feed_forward/layer_normalization_1/strided_slice_1/stack", "shape": [1], "dtype": "int32"}, {"name": "StatefulPartitionedCall/model/transformer/encoder/encoder_layer/feed_forward/layer_normalization_1/strided_slice_1/stack_1", "shape": [1], "dtype": "int32"}, {"name": "StatefulPartitionedCall/model/transformer/encoder/encoder_layer/feed_forward/layer_normalization_1/strided_slice_1/stack_2", "shape": [1], "dtype": "int32"}, {"name": "StatefulPartitionedCall/model/transformer/encoder/encoder_layer/feed_forward/layer_normalization_1/zeros/Const", "shape": [], "dtype": "float32"}, {"name": "StatefulPartitionedCall/model/transformer/encoder/encoder_layer/feed_forward/layer_normalization_1/Const", "shape": [0], "dtype": "float32"}, {"name": "StatefulPartitionedCall/model/transformer/encoder/encoder_layer/feed_forward/layer_normalization_1/Const_1", "shape": [0], "dtype": "float32"}, {"name": "StatefulPartitionedCall/model/transformer/encoder/encoder_layer/feed_forward/sequential/dense_2/Tensordot/Const", "shape": [1], "dtype": "int32"}, {"name": "StatefulPartitionedCall/model/transformer/encoder/encoder_layer/feed_forward/sequential/dense_2/Tensordot/axes", "shape": [1], "dtype": "int32"}, {"name": "StatefulPartitionedCall/model/transformer/encoder/encoder_layer/feed_forward/sequential/dense_2/Tensordot/GatherV2_1/axis", "shape": [], "dtype": "int32"}, {"name": "StatefulPartitionedCall/model/transformer/encoder/encoder_layer/feed_forward/sequential/dense_2/Tensordot/Const_1", "shape": [1], "dtype": "int32"}, {"name": "StatefulPartitionedCall/model/transformer/encoder/encoder_layer/feed_forward/sequential/dense_2/Tensordot/ReadVariableOp", "shape": [389, 141], "dtype": "float32"}, {"name": "StatefulPartitionedCall/model/transformer/encoder/encoder_layer/feed_forward/sequential/dense_1/Tensordot/Const", "shape": [1], "dtype": "int32"}, {"name": "StatefulPartitionedCall/model/transformer/encoder/encoder_layer/feed_forward/sequential/dense_1/Tensordot/axes", "shape": [1], "dtype": "int32"}, {"name": "StatefulPartitionedCall/model/transformer/encoder/encoder_layer/feed_forward/sequential/dense_1/Tensordot/GatherV2_1/axis", "shape": [], "dtype": "int32"}, {"name": "StatefulPartitionedCall/model/transformer/encoder/encoder_layer/feed_forward/sequential/dense_1/Tensordot/Const_1", "shape": [1], "dtype": "int32"}, {"name": "StatefulPartitionedCall/model/transformer/encoder/encoder_layer/feed_forward/sequential/dense_1/Tensordot/ReadVariableOp", "shape": [141, 389], "dtype": "float32"}, {"name": "StatefulPartitionedCall/model/transformer/encoder/encoder_layer/global_self_attention/layer_normalization/Reshape/shape/0", "shape": [], "dtype": "int32"}, {"name": "StatefulPartitionedCall/model/transformer/encoder/encoder_layer/global_self_attention/layer_normalization/strided_slice_2/stack", "shape": [1], "dtype": "int32"}, {"name": "StatefulPartitionedCall/model/transformer/encoder/encoder_layer/global_self_attention/layer_normalization/strided_slice_2/stack_1", "shape": [1], "dtype": "int32"}, {"name": "StatefulPartitionedCall/model/transformer/encoder/encoder_layer/global_self_attention/layer_normalization/strided_slice_2/stack_2", "shape": [1], "dtype": "int32"}, {"name": "StatefulPartitionedCall/model/transformer/encoder/encoder_layer/global_self_attention/layer_normalization/Reshape/shape/3", "shape": [], "dtype": "int32"}, {"name": "StatefulPartitionedCall/model/transformer/encoder/encoder_layer/global_self_attention/layer_normalization/ones/Const", "shape": [], "dtype": "float32"}, {"name": "StatefulPartitionedCall/model/transformer/encoder/encoder_layer/global_self_attention/layer_normalization/strided_slice/stack", "shape": [1], "dtype": "int32"}, {"name": "StatefulPartitionedCall/model/transformer/encoder/encoder_layer/global_self_attention/layer_normalization/strided_slice/stack_1", "shape": [1], "dtype": "int32"}, {"name": "StatefulPartitionedCall/model/transformer/encoder/encoder_layer/global_self_attention/layer_normalization/strided_slice/stack_2", "shape": [1], "dtype": "int32"}, {"name": "StatefulPartitionedCall/model/transformer/encoder/encoder_layer/global_self_attention/layer_normalization/strided_slice_1/stack", "shape": [1], "dtype": "int32"}, {"name": "StatefulPartitionedCall/model/transformer/encoder/encoder_layer/global_self_attention/layer_normalization/strided_slice_1/stack_1", "shape": [1], "dtype": "int32"}, {"name": "StatefulPartitionedCall/model/transformer/encoder/encoder_layer/global_self_attention/layer_normalization/strided_slice_1/stack_2", "shape": [1], "dtype": "int32"}, {"name": "StatefulPartitionedCall/model/transformer/encoder/encoder_layer/global_self_attention/layer_normalization/zeros/Const", "shape": [], "dtype": "float32"}, {"name": "StatefulPartitionedCall/model/transformer/encoder/encoder_layer/global_self_attention/layer_normalization/Const", "shape": [0], "dtype": "float32"}, {"name": "StatefulPartitionedCall/model/transformer/encoder/encoder_layer/global_self_attention/layer_normalization/Const_1", "shape": [0], "dtype": "float32"}, {"name": "StatefulPartitionedCall/model/transformer/encoder/encoder_layer/global_self_attention/multi_head_attention/attention_output/add/ReadVariableOp", "shape": [141], "dtype": "float32"}, {"name": "StatefulPartitionedCall/model/transformer/encoder/encoder_layer/global_self_attention/multi_head_attention/key/einsum/Einsum/ReadVariableOp", "shape": [141, 3, 141], "dtype": "float32"}, {"name": "StatefulPartitionedCall/model/transformer/encoder/encoder_layer/global_self_attention/multi_head_attention/key/add/ReadVariableOp", "shape": [3, 141], "dtype": "float32"}, {"name": "StatefulPartitionedCall/model/transformer/encoder/encoder_layer/global_self_attention/multi_head_attention/query/einsum/Einsum/ReadVariableOp", "shape": [141, 3, 141], "dtype": "float32"}, {"name": "StatefulPartitionedCall/model/transformer/encoder/encoder_layer/global_self_attention/multi_head_attention/query/add/ReadVariableOp", "shape": [3, 141], "dtype": "float32"}, {"name": "StatefulPartitionedCall/model/transformer/encoder/encoder_layer/global_self_attention/multi_head_attention/Mul/y", "shape": [], "dtype": "float32"}, {"name": "StatefulPartitionedCall/model/transformer/encoder/positional_embedding/dense/Tensordot/Const", "shape": [1], "dtype": "int32"}, {"name": "StatefulPartitionedCall/model/transformer/encoder/positional_embedding/dense/Tensordot/axes", "shape": [1], "dtype": "int32"}, {"name": "StatefulPartitionedCall/model/transformer/encoder/positional_embedding/dense/Tensordot/GatherV2_1/axis", "shape": [], "dtype": "int32"}, {"name": "StatefulPartitionedCall/model/transformer/encoder/positional_embedding/dense/Tensordot/Const_1", "shape": [1], "dtype": "int32"}, {"name": "StatefulPartitionedCall/model/transformer/encoder/positional_embedding/dense/Tensordot/ReadVariableOp", "shape": [144, 141], "dtype": "float32"}, {"name": "StatefulPartitionedCall/model/transformer/encoder/positional_embedding/dense/Tensordot/free", "shape": [2], "dtype": "int32"}, {"name": "StatefulPartitionedCall/model/transformer/encoder/positional_embedding/dense/Tensordot/GatherV2/axis", "shape": [], "dtype": "int32"}, {"name": "StatefulPartitionedCall/model/transformer/encoder/positional_embedding/dense/Tensordot/Const_2", "shape": [1], "dtype": "int32"}, {"name": "StatefulPartitionedCall/model/transformer/encoder/positional_embedding/dense/Tensordot/concat_1/axis", "shape": [], "dtype": "int32"}, {"name": "StatefulPartitionedCall/model/transformer/encoder/positional_embedding/dense/BiasAdd/ReadVariableOp", "shape": [141], "dtype": "float32"}, {"name": "unknown_1", "shape": [2048, 142], "dtype": "float32"}, {"name": "StatefulPartitionedCall/model/transformer/encoder/positional_embedding/strided_slice_1/stack", "shape": [3], "dtype": "int32"}, {"name": "StatefulPartitionedCall/model/transformer/encoder/positional_embedding/strided_slice_1/stack_1/0", "shape": [], "dtype": "int32"}, {"name": "StatefulPartitionedCall/model/transformer/encoder/positional_embedding/strided_slice/stack", "shape": [1], "dtype": "int32"}, {"name": "StatefulPartitionedCall/model/transformer/encoder/positional_embedding/strided_slice/stack_1", "shape": [1], "dtype": "int32"}, {"name": "StatefulPartitionedCall/model/transformer/encoder/positional_embedding/strided_slice/stack_2", "shape": [1], "dtype": "int32"}, {"name": "StatefulPartitionedCall/model/transformer/encoder/positional_embedding/strided_slice_1/stack_1/2", "shape": [], "dtype": "int32"}, {"name": "StatefulPartitionedCall/model/transformer/encoder/positional_embedding/strided_slice_1/stack_2", "shape": [3], "dtype": "int32"}, {"name": "StatefulPartitionedCall/model/transformer/encoder/encoder_layer/global_self_attention/multi_head_attention/value/einsum/Einsum/ReadVariableOp", "shape": [141, 3, 141], "dtype": "float32"}, {"name": "StatefulPartitionedCall/model/transformer/encoder/encoder_layer/global_self_attention/multi_head_attention/value/add/ReadVariableOp", "shape": [3, 141], "dtype": "float32"}, {"name": "StatefulPartitionedCall/model/transformer/encoder/encoder_layer/global_self_attention/multi_head_attention/attention_output/einsum/Einsum/ReadVariableOp", "shape": [3, 141, 141], "dtype": "float32"}, {"name": "StatefulPartitionedCall/model/transformer/encoder/encoder_layer/global_self_attention/layer_normalization/mul_3/ReadVariableOp", "shape": [141], "dtype": "float32"}, {"name": "StatefulPartitionedCall/model/transformer/encoder/encoder_layer/global_self_attention/layer_normalization/add/ReadVariableOp", "shape": [141], "dtype": "float32"}, {"name": "StatefulPartitionedCall/model/transformer/encoder/encoder_layer/feed_forward/sequential/dense_1/Tensordot/free", "shape": [2], "dtype": "int32"}, {"name": "StatefulPartitionedCall/model/transformer/encoder/encoder_layer/feed_forward/sequential/dense_1/Tensordot/GatherV2/axis", "shape": [], "dtype": "int32"}, {"name": "StatefulPartitionedCall/model/transformer/encoder/encoder_layer/feed_forward/sequential/dense_1/Tensordot/Const_2", "shape": [1], "dtype": "int32"}, {"name": "StatefulPartitionedCall/model/transformer/encoder/encoder_layer/feed_forward/sequential/dense_1/Tensordot/concat_1/axis", "shape": [], "dtype": "int32"}, {"name": "StatefulPartitionedCall/model/transformer/encoder/encoder_layer/feed_forward/sequential/dense_1/BiasAdd/ReadVariableOp", "shape": [389], "dtype": "float32"}, {"name": "StatefulPartitionedCall/model/transformer/encoder/encoder_layer/feed_forward/sequential/dense_2/Tensordot/free", "shape": [2], "dtype": "int32"}, {"name": "StatefulPartitionedCall/model/transformer/encoder/encoder_layer/feed_forward/sequential/dense_2/Tensordot/GatherV2/axis", "shape": [], "dtype": "int32"}, {"name": "StatefulPartitionedCall/model/transformer/encoder/encoder_layer/feed_forward/sequential/dense_2/Tensordot/Const_2", "shape": [1], "dtype": "int32"}, {"name": "StatefulPartitionedCall/model/transformer/encoder/encoder_layer/feed_forward/sequential/dense_2/Tensordot/concat_1/axis", "shape": [], "dtype": "int32"}, {"name": "StatefulPartitionedCall/model/transformer/encoder/encoder_layer/feed_forward/sequential/dense_2/BiasAdd/ReadVariableOp", "shape": [141], "dtype": "float32"}, {"name": "StatefulPartitionedCall/model/transformer/encoder/encoder_layer/feed_forward/layer_normalization_1/mul_3/ReadVariableOp", "shape": [141], "dtype": "float32"}, {"name": "StatefulPartitionedCall/model/transformer/encoder/encoder_layer/feed_forward/layer_normalization_1/add/ReadVariableOp", "shape": [141], "dtype": "float32"}, {"name": "StatefulPartitionedCall/model/transformer/decoder/decoder_layer/cross_attention/multi_head_attention_2/value/einsum/Einsum/ReadVariableOp", "shape": [141, 3, 141], "dtype": "float32"}, {"name": "StatefulPartitionedCall/model/transformer/decoder/decoder_layer/cross_attention/multi_head_attention_2/value/add/ReadVariableOp", "shape": [3, 141], "dtype": "float32"}, {"name": "StatefulPartitionedCall/model/transformer/decoder/decoder_layer/cross_attention/multi_head_attention_2/attention_output/einsum/Einsum/ReadVariableOp", "shape": [3, 141, 141], "dtype": "float32"}, {"name": "StatefulPartitionedCall/model/transformer/decoder/decoder_layer/cross_attention/multi_head_attention_2/attention_output/add/ReadVariableOp", "shape": [141], "dtype": "float32"}, {"name": "StatefulPartitionedCall/model/transformer/decoder/decoder_layer/cross_attention/layer_normalization_3/mul_3/ReadVariableOp", "shape": [141], "dtype": "float32"}, {"name": "StatefulPartitionedCall/model/transformer/decoder/decoder_layer/cross_attention/layer_normalization_3/add/ReadVariableOp", "shape": [141], "dtype": "float32"}, {"name": "StatefulPartitionedCall/model/transformer/decoder/decoder_layer/feed_forward_1/sequential_1/dense_3/Tensordot/free", "shape": [2], "dtype": "int32"}, {"name": "StatefulPartitionedCall/model/transformer/decoder/decoder_layer/feed_forward_1/sequential_1/dense_3/Tensordot/GatherV2/axis", "shape": [], "dtype": "int32"}, {"name": "StatefulPartitionedCall/model/transformer/decoder/decoder_layer/feed_forward_1/sequential_1/dense_3/Tensordot/Const_2", "shape": [1], "dtype": "int32"}, {"name": "StatefulPartitionedCall/model/transformer/decoder/decoder_layer/feed_forward_1/sequential_1/dense_3/Tensordot/concat_1/axis", "shape": [], "dtype": "int32"}, {"name": "StatefulPartitionedCall/model/transformer/decoder/decoder_layer/feed_forward_1/sequential_1/dense_3/BiasAdd/ReadVariableOp", "shape": [389], "dtype": "float32"}, {"name": "StatefulPartitionedCall/model/transformer/decoder/decoder_layer/feed_forward_1/sequential_1/dense_4/Tensordot/free", "shape": [2], "dtype": "int32"}, {"name": "StatefulPartitionedCall/model/transformer/decoder/decoder_layer/feed_forward_1/sequential_1/dense_4/Tensordot/GatherV2/axis", "shape": [], "dtype": "int32"}, {"name": "StatefulPartitionedCall/model/transformer/decoder/decoder_layer/feed_forward_1/sequential_1/dense_4/Tensordot/Const_2", "shape": [1], "dtype": "int32"}, {"name": "StatefulPartitionedCall/model/transformer/decoder/decoder_layer/feed_forward_1/sequential_1/dense_4/Tensordot/concat_1/axis", "shape": [], "dtype": "int32"}, {"name": "StatefulPartitionedCall/model/transformer/decoder/decoder_layer/feed_forward_1/sequential_1/dense_4/BiasAdd/ReadVariableOp", "shape": [141], "dtype": "float32"}, {"name": "StatefulPartitionedCall/model/transformer/decoder/decoder_layer/feed_forward_1/layer_normalization_4/mul_3/ReadVariableOp", "shape": [141], "dtype": "float32"}, {"name": "StatefulPartitionedCall/model/transformer/decoder/decoder_layer/feed_forward_1/layer_normalization_4/add/ReadVariableOp", "shape": [141], "dtype": "float32"}, {"name": "StatefulPartitionedCall/model/transformer/dense_5/Tensordot/free", "shape": [2], "dtype": "int32"}, {"name": "StatefulPartitionedCall/model/transformer/dense_5/Tensordot/GatherV2/axis", "shape": [], "dtype": "int32"}, {"name": "StatefulPartitionedCall/model/transformer/dense_5/Tensordot/Const_2", "shape": [1], "dtype": "int32"}, {"name": "StatefulPartitionedCall/model/transformer/dense_5/Tensordot/concat_1/axis", "shape": [], "dtype": "int32"}, {"name": "StatefulPartitionedCall/model/transformer/dense_5/BiasAdd/ReadVariableOp", "shape": [60], "dtype": "float32"}, {"name": "ConstantFolding/StatefulPartitionedCall/model/transformer/encoder/encoder_layer/global_self_attention/layer_normalization/ones/packed_const_axis", "shape": [], "dtype": "int32"}, {"name": "ConstantFolding/StatefulPartitionedCall/model/transformer/encoder/encoder_layer/global_self_attention/layer_normalization/zeros/packed_const_axis", "shape": [], "dtype": "int32"}, {"name": "ConstantFolding/StatefulPartitionedCall/model/transformer/decoder/decoder_layer/causal_self_attention/layer_normalization_2/ones/packed_const_axis", "shape": [], "dtype": "int32"}, {"name": "ConstantFolding/StatefulPartitionedCall/model/transformer/decoder/decoder_layer/causal_self_attention/layer_normalization_2/zeros/packed_const_axis", "shape": [], "dtype": "int32"}, {"name": "ConstantFolding/StatefulPartitionedCall/model/transformer/encoder/encoder_layer/feed_forward/layer_normalization_1/ones/packed_const_axis", "shape": [], "dtype": "int32"}, {"name": "ConstantFolding/StatefulPartitionedCall/model/transformer/encoder/encoder_layer/feed_forward/layer_normalization_1/zeros/packed_const_axis", "shape": [], "dtype": "int32"}, {"name": "ConstantFolding/StatefulPartitionedCall/model/transformer/decoder/decoder_layer/cross_attention/layer_normalization_3/ones/packed_const_axis", "shape": [], "dtype": "int32"}, {"name": "ConstantFolding/StatefulPartitionedCall/model/transformer/decoder/decoder_layer/cross_attention/layer_normalization_3/zeros/packed_const_axis", "shape": [], "dtype": "int32"}, {"name": "ConstantFolding/StatefulPartitionedCall/model/transformer/decoder/decoder_layer/feed_forward_1/layer_normalization_4/ones/packed_const_axis", "shape": [], "dtype": "int32"}, {"name": "ConstantFolding/StatefulPartitionedCall/model/transformer/decoder/decoder_layer/feed_forward_1/layer_normalization_4/zeros/packed_const_axis", "shape": [], "dtype": "int32"}]}]}